checkpoint.pth (torch_old, 106850 bytes, 6 tensors)

fc1.weight f4 [256, 37]
-0.33775488 -0.1419888 -0.053721406 0.12515144 0.34292036 -0.77002317 0.24511576 0.14568959
-0.5339489 -0.16228645 -0.84203774 -0.0004599281 0.044113584 -0.046186395 -0.8415247 -0.7105533
0.082967766 0.26081616 -0.085292764 -0.20956488 -0.656377 0.35570997 0.024981212 -0.36973375
-0.43950713 -0.79761714 0.19157958 0.04057097 -0.565576 -0.37897727 -0.5378627 0.22334337
0.016886191 -0.19747016 -0.43179154 0.047450665 -0.027431985 0.15660991 0.059081633 0.1186541
0.053954616 0.0761859 0.061187275 -0.5046808 -0.6047369 -0.57982945 -2.7233984 0.12060245
0.07868731 -0.07402956 -0.042755675 0.046670098 0.15090302 0.14692663 -0.38239753 -0.016362766
0.1365749 0.031227805 -0.13406396 -0.055636108 -0.08502352 -0.006816406 -0.0047231927 -0.07292291
0.10903904 -0.011376135 0.032557283 0.145883 -0.07968801 0.04435683 0.09477186 0.13487932
-0.037298705 0.0063929176 -0.042809445 -0.1434863 -0.23069808 -0.64088106 -0.40221742 -1.0086116
0.08538738 -0.011748746 -0.5563488 -0.45462114 -0.46219215 -0.25417987 -0.26246038 -0.1425017
0.26403263 0.023454348 -0.38416305 -0.1121102 -0.609377 -0.18033575 -0.16130415 -0.3610785
-0.37617952 -0.25523645 0.2060246 -0.15177344 -0.093551986 -0.18400612 -0.43978253 -0.27059993
-0.3547164 -0.28872073 -0.22468449 -0.48649728 -0.27786005 -0.023340875 0.22133604 0.1715295
0.16211586 0.14809962 0.08021043 -0.012293046 0.105212234 0.083926305 0.10150666 0.04995576
0.047775313 0.13134836 0.08678467 0.12397431 0.06863815 0.11580759 -0.02627511 0.018296989
-0.116121925 -0.08248641 -0.01955523 0.17455149 -0.9773169 -0.77197534 -0.92164344 -2.998185
0.08567172 0.10051696 0.093565896 0.16637166 0.07159909 0.13639061 0.090740696 0.13680674
0.3226153 0.102937825 0.010852257 0.01832684 -0.8003598 -0.6293798 0.0524574 -0.44008115
-1.0707705 -0.14646012 -0.40605953 -0.6036655 0.108143926 0.8299983 -0.87096465 -0.4047664
-0.0005050031 -0.45735058 -0.072177686 -0.3350193 -0.51121014 -0.2133285 -0.2705344 -0.59895945
0.109765016 -0.44677478 -0.5232 -0.4973645 0.25321868 -0.17835066 -0.2403364 -0.08473861
-0.42803392 0.19994043 -0.6275817 -0.09757431 -0.81303185 0.117571585 0.48099738 0.20632501
-0.09861696 0.075944625 -0.0072721383 -0.018609166 0.09748066 0.08716623 0.12126669 -0.55431503
-0.75330436 -1.0925227 -2.9512782 -0.022969298 0.09333722 -0.018308202 0.01521635 0.00041042964
0.035513304 0.08150215 0.13797171 -0.05794722 -0.052923698 0.1745991 0.06501745 0.1726463
0.21811731 -0.04165875 0.07372045 0.0065102964 0.08009081 0.2513012 0.15498753 0.18267514
-0.021536762 0.1877914 0.19197942 0.21438599 -0.005211827 0.025664961 -0.21081671 -0.06729335
-0.16556506 -0.18781419 -0.07559715 -0.3469978 -0.31696263 -0.20958968 0.1485724 -0.106665246
-0.016818574 -0.044221494 -0.21921822 -0.3763114 0.0067070676 -0.011130042 -0.31521752 -0.3588701
-0.040554106 0.090224996 -0.46194273 -0.23005846 0.052818604 -0.21409234 -0.06688216 -0.42618996
-0.10173201 0.008608774 -0.30376667 0.08560938 -0.16391796 -0.39700595 -0.21804674 0.020297857
00000000: 35ee acbe 8365 11be fa0a 5cbd b327 003e
00000010: 4293 af3e 3d20 45bf a0ff 7a3e a72f 153e
00000020: e0b0 08bf 6b2e 26be c98f 57bf 8122 f1b9
00000030: 72b0 343d f22d 3dbd 2a6e 57bf d2e6 35bf
00000040: 01eb a93d b289 853e f9ad aebd 2d98 56be
00000050: 5308 28bf 9e1f b63e 66a5 cc3c be4d bdbe
00000060: 1407 e1be a330 4cbf 702d 443e bf2d 263d
00000070: 97c9 10bf 4f09 c2be 5fb1 09bf 20b4 643e
00000080: e954 8a3c 9e35 4abe c813 ddbe a15b 423d
00000090: 0bb9 e0bc 595e 203e 95ff 713d ec00 f33d
000000a0: 84ff 5c3d 5a07 9c3d 829f 7a3d c332 01bf
000000b0: 0ad0 1abf b46f 14bf 294c 2ec0 6bfe f63d
000000c0: d026 a13d cf9c 97bd 9320 2fbd 2529 3f3d
000000d0: 5286 1a3e ef73 163e 9cc9 c3be 350b 86bc
000000e0: 4ada 0b3e 74d1 ff3c 1048 09be b0e2 63bd
000000f0: d020 aebd 285c dfbb 03c5 9abb 9b58 95bd
00000100: dc4f df3d f862 3abc c95a 053d 5a62 153e
00000110: 7833 a3bd 82af 353d c017 c23d ce1d 0a3e
00000120: 87c6 18bd ae7b d13b f558 2fbd 13ee 12be
00000130: 1e3c 6cbe c810 24bf 71ef cdbe 2f1a 81bf
00000140: 94df ae3d d07d 40bc e06c 0ebf 1ac4 e8be
00000150: 73a4 ecbe dd23 82be 3561 86be f7eb 11be
00000160: 492f 873e 5523 c03c 05b1 c4be 089a e5bd
00000170: 2200 1cbf efa9 38be ea2c 25be 48df b8be
00000180: 9a9a c0be 5aae 82be 1df8 523e 7f6a 1bbe
00000190: 2f98 bfbd 1a6c 3cbe 2d2b e1be 138c 8abe
000001a0: 639d b5be 34d3 93be b113 66be 2c16 f9be
000001b0: ac43 8ebe 5d35 bfbc eaa5 623e 6ea5 2f3e
000001c0: b301 263e 6da7 173e 5e45 a43d c668 49bc
000001d0: 8379 d73d 8ee1 ab3d b9e2 cf3d 699e 4c3d
000001e0: 0cb0 433d 2f80 063e 29bc b13d 3ee6 fd3d
000001f0: 2992 8c3d 882c ed3d e63e d7bc 91e3 953c
00000200: 55d1 edbd a3ee a8bd 4a32 a0bc a0bd 323e
00000210: 7131 7abf 2da0 45bf d3f0 6bbf 43e2 3fc0
00000220: a874 af3d d6db cd3d 7a9f bf3d 555d 2a3e
00000230: 8ba2 923d fba9 0b3e 42d6 b93d 1117 0c3e
00000240: d52d a53e 11d1 d23d aacd 313c 2b22 963c
00000250: 61e4 4cbf 091f 21bf 92dd 563d 5152 e1be
00000260: 020f 89bf a4f9 15be 09e7 cfbe d289 1abf
00000270: 907a dd3d c57a 543f 8af7 5ebf 8b3d cfbe
00000280: 2f62 04ba db29 eabe e5d1 93bd a687 abbe
00000290: abde 02bf c972 5abe 7c83 8abe 6855 19bf
000002a0: 7bcc e03d aabf e4be 6ff0 05bf 8fa6 febe
000002b0: e1a5 813e 8ea1 36be bf1a 76be 708b adbd
000002c0: 4327 dbbe 2fbd 4c3e 32a9 20bf 0ad5 c7bd
000002d0: db22 50bf 5fc9 f03d 4a45 f63e dd46 533e
000002e0: b0f7 c9bd db88 9b3d 1e4b eebb 4072 98bc
000002f0: f1a3 c73d 3584 b23d ac5a f83d 97e7 0dbf
00000300: 8ed8 40bf c9d7 8bbf bee1 3cc0 1c2a bcbc
00000310: 9627 bf3d 15fb 95bc ff4d 793c ef2e d739
00000320: 6676 113d 99ea a63d 7548 0d3e 105a 6dbd
00000330: 85c6 58bd 1bca 323e de27 853d 31ca 303e
00000340: 255a 5f3e 5ea2 2abd bffa 963d 5354 d53b
00000350: a706 a43d 8daa 803e 0db5 1e3e 310f 3b3e
00000360: dd6d b0bc 644c 403e 4196 443e 0088 5b3e
00000370: f9c7 aabb 533f d23c 56e0 57be 19d1 89bd
00000380: e389 29be 5d52 40be aed2 9abd b2a9 b1be
00000390: ed48 a2be ad9e 56be 5d23 183e 4f73 dabd
000003a0: 1bc7 89bc 9921 35bd be7a 60be e3ab c0be
000003b0: f6c6 db3b c85a 36bc 3164 a1be d2bd b7be
000003c0: 101c 26bd e2c7 b83d c283 ecbe 7294 6bbe
000003d0: 5258 583d 063b 5bbe 84f9 88bd 9235 dabe
000003e0: df58 d0bd d10b 0d3c 4e87 9bbe f853 af3d
000003f0: 1cda 27be 5d44 cbbe a547 5fbe b147 a63c

fc1.bias f4 [256]
-0.017483842 -0.12542924 -0.45015323 -0.18927364 -0.183761 -0.31919414 -0.41995457 -0.12770197
-0.10839327 -0.37669864 -0.21241823 -0.1839079 -0.46999982 -0.108576514 -0.21641205 -0.22304745
0.023142908 -0.45313632 -0.45124987 -0.29569077 -0.3576923 -0.3331878 -0.17820704 -0.2729429
-0.18150304 -0.30320704 -0.14458933 0.025204888 -0.32501101 -0.1953538 0.26411715 -0.24130385
-0.36961323 -0.022898423 -0.20052782 0.0863873 -0.22347465 -0.26328918 -0.17885214 -0.26447362
-0.33100954 -0.13375174 -0.18268083 -0.23036735 -0.19263752 -0.18913035 -0.25364244 0.01237365
-0.34741983 -0.32321522 -0.38276553 -0.24824885 -0.29179123 -0.33178106 0.0006923568 -0.43921804
0.1379667 -0.15116313 -0.2623229 -0.16112228 -0.013096236 -0.2349532 -0.15343274 -0.28407887
-0.15703842 0.1564607 -0.386278 -0.10312593 -0.28859782 -0.25007108 -0.27652976 -0.07511773
-0.36827362 -0.013457247 -0.2237786 -0.252942 -0.002721293 -0.28011066 -0.29357508 -0.17861466
-0.36325833 -0.07006409 -0.22377066 -0.22446957 -0.31493026 -0.23574503 -0.022043858 -0.19463067
-0.08758261 -0.15492013 -0.11230216 -0.53176 -0.25222087 0.032076683 -0.332491 -0.27069587
0.025406968 -0.3056935 -0.18193118 -0.09685568 -0.3167847 -0.31229654 -0.3332378 0.09739516
-0.36832812 -0.4222263 -0.06947726 -0.22659549 -0.0981263 -0.1946467 -0.27612567 -0.07780665
0.008344884 -0.26238889 -0.20165208 -0.38629207 -0.1805359 -0.40384912 -0.41590485 -0.25397155
-0.37261975 0.13093533 -0.3042337 0.06957282 -0.14252846 -0.24717236 -0.08391149 -0.123649634
-0.19974916 -0.27631888 -0.23049386 -0.08007065 -0.29016766 -0.4282151 -0.13346417 -0.46619016
-0.27092576 -0.09949475 -0.10892159 -0.36891472 -0.034011 -0.25988925 -0.18818465 -0.3659633
0.17399797 -0.3747646 -0.3374677 -0.11025594 -0.2486815 -0.07047004 -0.21222769 -0.14474009
-0.18824898 -0.54403883 -0.19747084 -0.26412183 -0.18410087 -0.37550458 0.21842627 -0.14998898
0.011364201 -0.11604479 -0.2032819 -0.21358559 0.18162434 -0.28008986 -0.348475 -0.3239644
-0.001447274 -0.38012558 -0.23102273 -0.26501042 -0.13437052 -0.13003455 -0.025176812 -0.14518942
-0.050984744 -0.39929572 -0.151147 -0.3769318 -0.15018 -0.27599308 -0.39998677 -0.30608937
-0.3686513 -0.04636231 0.1082985 -0.196387 0.06135713 -0.20462349 -0.36293775 -0.09475475
-0.12404233 -0.31218377 -0.21113391 -0.08222905 -0.1675995 -0.27960345 -0.23926824 -0.2920943
-0.24540557 -0.11797729 -0.5230342 -0.024583396 -0.157448 -0.13946442 -0.11380922 -0.12727422
0.01091238 -0.25198317 -0.43096656 -0.3699844 -0.25778565 -0.089707375 -0.2192109 -0.45054823
-0.46080795 -0.04652073 -0.16133961 -0.17401138 -0.26059008 -0.29809666 -0.41126913 0.016395159
-0.47155538 -0.31965157 -0.06696389 -0.20702691 -0.088108264 -0.38419238 -0.14875181 -0.25007364
-0.24597931 -0.2848829 -0.20240292 -0.15280893 -0.35713145 -0.16665693 0.17183426 -0.54065394
0.079826936 0.042118482 -0.7330362 0.013413143 -0.5210005 -0.3278705 -0.24485709 -0.12192359
-0.14897104 -0.07347473 -0.2257981 -0.49157944 -0.20474112 -0.053938705 -0.13881569 -0.009208112
00000000: 463a 8fbc 8670 00be 7c7a e6be f3d0 41be
00000010: d82b 3cbe 6a6d a3be 4904 d7be 4ec4 02be
00000020: 4afd ddbd a5de c0be 2a84 59be 5a52 3cbe
00000030: d1a3 f0be 5d5d debd 1f9b 5dbe 8d66 64be
00000040: 3296 bd3c 7c01 e8be 390a e7be c864 97be
00000050: 7223 b7be 9797 aabe e87b 36be 2cbf 8bbe
00000060: efdb 39be f43d 9bbe 3a0f 14be 7b7a ce3c
00000070: d867 a6be d40a 48be 5d3a 873e 5b18 77be
00000080: f23d bdbe 7995 bbbc 2a57 4dbe d3eb b03d
00000090: 8ad6 64be d7cd 86be 0425 37be 1669 87be
000000a0: 157a a9be 37f6 08be af10 3bbe 6be5 6bbe
000000b0: c542 45be 63ab 41be 6cdd 81be daba 4a3c
000000c0: 03e1 b1be 777c a5be d8f9 c3be f234 7ebe
000000d0: a965 95be 35df a9be 477f 353a 30e1 e0be
000000e0: 2547 0d3e 82ca 1abe 304f 86be 3dfd 24be
000000f0: 9891 56bc 9297 70be 791d 1dbe c972 91be
00000100: aece 20be 3c37 203e 3bc6 c5be b033 d3bd
00000110: 18c3 93be 5109 80be 4f95 8dbe 53d7 99bd
00000120: 5c8e bcbe c97b 5cbc 3826 65be 9d81 81be
00000130: b857 32bb aa6a 8fbe 794f 96be c3e6 36be
00000140: fffc b9be c37d 8fbd 2324 65be 5adb 65be
00000150: 8a3e a1be 2567 71be 5295 b4bc 434d 47be
00000160: 835e b3bd 62a3 1ebe adfe e5bd 6c21 08bf
00000170: 1823 81be d762 033d 433c aabe a698 8abe
00000180: 4622 d03c dc83 9cbe 2b4c 3abe 455c c6bd
00000190: 9b31 a2be 55e5 9fbe 259e aabe 1d77 c73d
000001a0: 8195 bcbe 0c2e d8be 184a 8ebd a608 68be
000001b0: 71f6 c8bd 7751 47be 5860 8dbe 1859 9fbd
000001c0: fbb8 083c d657 86be e27d 4ebe 13c8 c5be
000001d0: 67de 38be 50c5 cebe 7bf1 d4be 8f08 82be
000001e0: 04c8 bebe e913 063e 85c4 9bbe 327c 8e3d
000001f0: fbf2 11be c01a 7dbe cad9 abbd 053c fdbd
00000200: 0b8b 4cbe ab79 8dbe 9506 6cbe 15fc a3bd
00000210: db90 94be 023f dbbe d5aa 08be 7ab0 eebe
00000220: c8b6 8abe e7c3 cbbd 4812 dfbd 64e2 bcbe
00000230: 1e4f 0bbd 3410 85be 7ab3 40be 8b5f bbbe
00000240: 862c 323e 25e1 bfbe 91c8 acbe decd e1bd
00000250: 5da6 7ebe 9952 90bd 3752 59be bf36 14be
00000260: 57c4 40be 2146 0bbf cc35 4abe fa3a 87be
00000270: f084 3cbe 2342 c0be 23ab 5f3e b696 19be
00000280: ea30 3a3c e4a8 edbd 2129 50be 2eb6 5abe
00000290: bbfb 393e f067 8fbe 516b b2be a9de a5be
000002a0: 75b2 bdba d29f c2be 3991 6cbe 72af 87be
000002b0: 6d98 09be c727 05be 9a3f cebc 89ac 14be
000002c0: 61d5 50bd 7d70 ccbe 47c6 1abe 34fd c0be
000002d0: c9c8 19be f74e 8dbe 11cb ccbe bfb7 9cbe
000002e0: ddbf bcbe 68e6 3dbd 9bcb dd3d ac19 49be
000002f0: 9d51 7b3d d288 51be fad2 b9be c70e c2bd
00000300: e809 febd 8dd6 9fbe 7d33 58be b467 a8bd
00000310: 349f 2bbe 2f28 8fbe bc02 75be 628d 95be
00000320: 994b 7bbe 149e f1bd 92e5 05bf 1e63 c9bc
00000330: 0c3a 21be c3cf 0ebe cf14 e9bd 2c54 02be
00000340: d7c9 323c f003 81be a6a7 dcbe 986e bdbe
00000350: 7bfc 83be 80b8 b7bd d278 60be 42ae e6be
00000360: 05ef ebbe 858c 3ebd 3636 25be 0a30 32be
00000370: 106c 85be 20a0 98be de91 d2be 244f 863c
00000380: b56f f1be 5fa9 a3be 5d24 89bd ddfe 53be
00000390: 1b72 b4bd ddb4 c4be 6552 18be a709 80be
000003a0: 00e2 7bbe 2cdc 91be b642 4fbe f279 1cbe
000003b0: efd9 b6be 1da8 2abe 52f5 2f3e 4c68 0abf
000003c0: 4e7c a33d 6e84 2c3d 43a8 3bbf cdc2 5b3c
000003d0: 4a60 05bf a4de a7be d1bb 7abe 13b3 f9bd
000003e0: dd8b 18be eb79 96bd 9e37 67be 4db0 fbbe
000003f0: a8a7 51be d5ee 5cbd b325 0ebe 9fdd 16bc

fc2.weight f4 [64, 256]
-0.15963188 -0.050048452 0.37048876 0.06855897 0.035492405 0.05759968 -0.13091487 -0.8959716
-0.03481482 -0.027405221 0.07533016 0.015039265 0.27525574 0.0236342 -0.068202026 -0.20244548
-0.33043098 0.12164995 0.2959169 -0.1307485 -0.034798104 0.022780903 0.05636723 0.38291767
-0.0497402 -0.09901758 0.20922393 -0.007293251 0.04503289 -0.014143397 0.036128104 -0.4710415
-0.057360608 -0.05779079 0.24770077 0.018767802 0.2789605 0.008047956 -0.059043467 0.100540966
0.06190181 0.06197283 -0.08867015 0.14071828 0.055069905 -0.1336251 0.067788675 -0.0039260355
0.11552 0.06909002 -0.038901594 0.13164674 -0.029156484 0.004571069 -0.12613851 -0.003015174
-0.25176933 0.0011358712 0.032422632 -0.117538236 0.6092233 0.091428064 -0.03759682 -0.11440782
0.23348136 -0.020906447 0.14635071 -0.44142607 0.26156783 0.007902993 0.28696656 -0.009535203
-0.07089688 -0.21980225 -0.33785644 -0.12846339 -0.021946667 -0.015039895 -0.06907666 0.011290481
0.048514713 -0.17149028 0.00011621894 -0.24212237 -0.09256204 -0.025924692 -0.073376045 0.009195776
0.15923734 -0.1136979 -0.04544492 0.0066559333 -0.11389368 -0.072680876 -0.0908526 0.06831676
-0.03677905 -0.24049962 0.042895414 0.06646151 0.041995935 -0.01480015 -0.24879557 -0.15284815
-0.11373771 -0.3711874 -0.16168846 0.01693141 -0.062250413 0.10815583 -0.1269057 0.14663523
0.26392463 -0.4995352 -0.01807893 0.04417736 -0.08435253 0.024393369 0.062721394 -0.07775478
0.05603971 -0.02900316 0.09730563 -0.22772716 -0.015966298 0.010096775 -0.15946886 0.05485372
-0.024535948 -0.2877139 0.12643167 -0.026482895 0.24210837 -0.14345106 0.18291052 -0.08019419
0.035255607 -0.0206531 -0.17174278 -0.026874026 -0.06939693 -0.15622887 -0.266012 0.07172651
-0.012294529 0.008354451 -0.11597861 0.08617532 0.1116369 -0.45874855 0.23386422 -0.6337689
0.02756743 -0.35756728 -0.023254557 -0.37355655 0.040893015 -0.23847671 -0.11002854 0.24212815
-0.031770892 0.036812536 0.09495388 -0.12942605 -0.03746854 -0.19436337 -0.42217624 -0.120621
-0.11690743 0.04377631 -0.019288268 -0.0408301 0.020250354 0.1138034 0.002123012 0.035170797
-0.019447904 0.20056464 -0.08949267 -0.06787983 0.08127018 0.08866068 -0.30163407 0.052981157
0.14529097 0.064602435 0.0155889345 0.21275207 -0.14954026 0.022188671 0.13996913 0.20672385
0.107558444 0.07974804 -0.037751164 -0.06618992 0.06574086 -0.26858804 -0.12837231 0.005579834
0.008093643 -0.07281253 0.15595202 0.081918396 0.118760854 -0.039523203 0.35859117 0.048623122
0.17366031 0.04385816 0.06276467 0.1672691 0.0063104667 -0.03681576 0.056427423 -0.038419414
-0.13133562 -0.10704871 -0.14111356 -0.056080397 0.009322471 -0.14273167 0.32820767 -0.17183328
0.023834223 0.4009805 -0.28079492 0.08753721 0.07608396 0.16409013 0.110020384 0.03297403
0.014882712 -0.16079047 0.09539076 0.07388422 -0.35996068 0.015609286 -0.3194588 0.34504566
-0.36808014 -0.30262625 0.08012345 -0.016434992 0.06660572 0.11583987 0.087032296 0.0423399
0.16351412 -0.30056804 0.31051552 0.26153943 -0.0549829 0.14354405 -0.18918812 -0.08676107
00000000: 8a76 23be 9bff 4cbd b4b0 bd3e a568 8c3d
00000010: 7c60 113d a4ed 6b3d 8c0e 06be 655e 65bf
00000020: fc99 0ebd ea80 e0bc b346 9a3d 4067 763c
00000030: 52ee 8c3e 839c c13c 81ad 8bbd de4d 4fbe
00000040: 402e a9be 9c23 f93d 6b82 973e efe2 05be
00000050: 7588 0ebd 049f ba3c 53e1 663d c90d c43e
00000060: 61bc 4bbd bbc9 cabd cc3e 563e 39fc eebb
00000070: 6874 383d b5b9 67bc 10fb 133d 5a2c f1be
00000080: f5f2 6abd 09b6 6cbd 45a5 7d3e efbe 993c
00000090: e9d3 8e3e 93db 033c 90d7 71bd 6ce8 cd3d
000000a0: c18c 7d3d 39d7 7d3d b298 b5bd 7418 103e
000000b0: fb90 613d 05d5 08be cad4 8a3d f9a5 80bb
000000c0: c095 ec3d 127f 8d3d 4757 1fbd 67ce 063e
000000d0: 94d9 eebc e8c8 953b 742a 01be 3a9a 45bb
000000e0: e9e7 80be 83e1 943a 98cd 043d e3b7 f0bd
000000f0: 0ff6 1b3f a33e bb3d 20ff 19bd a64e eabd
00000100: bd15 6f3e ff43 abbc f6dc 153e 9902 e2be
00000110: 38ec 853e 8e7b 013c 48ed 923e 8a39 1cbc
00000120: 6232 91bd d713 61be 85fb acbe e88b 03be
00000130: 7fc9 b3bc e469 76bc 1078 8dbd b6fb 383c
00000140: 5db7 463d 269b 2fbe 91ba f338 edee 77be
00000150: 2b91 bdbd 0560 d4bc 2e46 96bd e1a9 163c
00000160: 1d0f 233e 72da e8bd 7424 3abd 041a da3b
00000170: 1741 e9bd b6d9 94bd ee10 babd a8e9 8b3d
00000180: a1a5 16bd 8845 76be 1ab3 2f3d f91c 883d
00000190: ee03 2c3d 547c 72bc 44c4 7ebe 3a84 1cbe
000001a0: 51ef e8bd 460c bebe a991 25be beb3 8a3c
000001b0: 4afa 7ebd ce80 dd3d 91f3 01be 8c27 163e
000001c0: 2121 873e 14c3 ffbe 441a 94bc 52f3 343d
000001d0: 05c1 acbd 9ad4 c73c 1374 803d e63d 9fbd
000001e0: e589 653d 0998 edbc 2d48 c73d 4f31 69be
000001f0: c1cb 82bc f26c 253c ce4b 23be 4bae 603d
00000200: 9dff c8bc 3c4f 93be 4e77 013e a8f2 d8bc
00000210: 42eb 773e d6e4 12be e54c 3b3e da3c a4bd
00000220: 2f68 103d b130 a9bc 57dd 2fbe eb26 dcbc
00000230: fa1f 8ebd 76fa 1fbe ba32 88be 59e5 923d
00000240: fe6e 49bc 1be1 083c 3286 edbd b07c b03d
00000250: e3a1 e43d 17e1 eabe 1a7a 6f3e ae3e 22bf
00000260: 17d5 e13c 0f13 b7be 5780 bebc ce42 bfbe
00000270: 6f7f 273d 3d33 74be a556 e1bd 71f0 773e
00000280: 3222 02bd bec8 163d 2e77 c23d 4388 04be
00000290: 9d78 19bd 3107 47be 7c27 d8be 2508 f7bd
000002a0: 2a6d efbd ca4e 333d 6e02 9ebc 773d 27bd
000002b0: 12e4 a53c c211 e93d 3b22 0b3b 410f 103d
000002c0: 3651 9fbc d160 4d3e ef47 b7bd 9504 8bbd
000002d0: fb70 a63d bb93 b53d c86f 9abe c502 593d
000002e0: 28c7 143e 484e 843d bb68 7f3c aedb 593e
000002f0: 1521 19be 04c5 b53c 1154 0f3e 6baf 533e
00000300: 9a47 dc3d f152 a33d f7a0 1abd 958e 87bd
00000310: 25a3 863d 5f84 89be 0874 03be 0ad7 b63b
00000320: 339b 043c bc1e 95bd e3b1 1f3e d5c4 a73d
00000330: e438 f33d 15e3 21bd 4399 b73e 0a29 473d
00000340: 02d4 313e 9da4 333d c38a 803d 9748 2b3e
00000350: 08c8 ce3b 1fcc 16bd 7120 673d ad5d 1dbd
00000360: d87c 06be 5b3c dbbd 1380 10be 8fb4 65bd
00000370: 47bd 183c 4028 12be d60a a83e 10f5 2fbe
00000380: fd3f c33c 514d cd3e 5ac4 8fbe b546 b33d
00000390: e8d1 9b3d 3e07 283e 5e52 e13d c70f 073d
000003a0: 9ed6 733c 42a6 24be 3b5c c33d 9c50 973d
000003b0: c44c b8be 17be 7f3c 1b90 a3be d3a9 b03e
000003c0: 0075 bcbe d4f1 9abe c317 a43d ada2 86bc
000003d0: 9468 883d 743d ed3d fd3d b23d 9a6c 2d3d
000003e0: 3f70 273e 0ee4 99be e4fb 9e3e 7fe8 853e
000003f0: c035 61bd 36fd 123e 88ba 41be caaf b1bd

fc2.bias f4 [64]
0.08472354 0.3900521 0.09952034 0.4672937 0.09620293 0.47297397 0.37285495 -0.07371783
0.15542918 0.053946223 0.32021743 0.15427129 -0.08171369 -0.10101963 -0.012385887 0.29863605
-0.29153278 0.38689327 0.6063598 -0.11380362 0.038310573 -0.08370434 0.06616806 -0.090165995
-0.12340237 0.36937597 0.5037014 0.094618045 0.034469176 0.057383116 0.43471095 0.06304062
-0.139433 0.40251818 -0.06532269 -0.08766749 -0.010105984 -0.13701162 0.2789966 0.057055563
0.05775042 0.47511324 0.23301694 0.42281932 0.12993306 0.34238297 0.59229946 0.48685667
-0.09229423 0.40591994 -0.09646774 -0.11361173 0.058089025 0.023518562 0.4032139 0.44271138
0.364794 0.07026079 0.09654227 0.109977275 0.28062472 -0.13425197 0.1650398 0.17902122
00000000: 8983 ad3d e9b4 c73e 52d1 cb3d 1f41 ef3e
00000010: 0b06 c53d a529 f23e d8e6 be3e 60f9 96bd
00000020: d428 1f3e b7f6 5c3d 8af3 a33e 4bf9 1d3e
00000030: 8259 a7bd 61e3 cebd 2dee 4abc d3e6 983e
00000040: c943 95be e016 c63e 653a 1b3f df11 e9bd
00000050: 8ceb 1c3d 2e6d abbd 1f83 873d f3a8 b8bd
00000060: 62ba fcbd d91e bd3e 93f2 003f 1bc7 c13d
00000070: 8d2f 0d3d 8f0a 6b3d 6f92 de3e 711b 813d
00000080: 86c7 0ebe dd16 ce3e e7c7 85bd 038b b3bd
00000090: 9293 25bc c64c 0cbe a4d8 8e3e 18b3 693d
000000a0: b48b 6c3d 0b42 f33e fe9b 6e3e c67b d83e
000000b0: 2c0d 053e d24c af3e f0a0 173f 4745 f93e
000000c0: c204 bdbd bdd4 cf3e e190 c5bd 44ad e8bd
000000d0: c2ee 6d3d 00aa c03c 0d72 ce3e 11ab e23e
000000e0: 47c6 ba3e e4e4 8f3d f4b7 c53d c43b e13d
000000f0: 0bae 8f3e 5979 09be 3100 293e 5751 373e

fc3.weight f4 [4, 64]
0.025560685 -0.06523094 0.025679713 -0.06698779 0.028892972 -0.062610075 0.030306743 -0.011431841
0.028536882 0.035001803 -0.07757262 0.022410696 -0.019640278 -0.044145748 -0.3054254 -0.098586194
-0.27587864 -0.066766545 0.03878631 -0.044414185 0.05135495 0.042718366 0.0265932 -0.05931691
0.011993671 -0.086449616 -0.055629037 0.018250147 0.035841208 0.025005482 -0.06728312 0.030786805
0.02730244 0.03889133 0.05948113 -0.028020544 0.028346902 -0.08871406 -0.12291892 0.03012148
0.01961311 -0.06392091 -0.23703004 -0.07167565 0.032268893 -0.09387724 0.046941333 0.040942084
0.00040944482 0.037482657 -0.06638041 -0.3603322 0.025238922 -0.041718755 0.04056128 -0.054891277
-0.082819656 0.029928226 0.030983888 0.020628944 -0.09250121 -0.035583265 0.028209332 0.026197614
0.011681275 -0.030300647 0.029722987 -0.059306655 0.03102548 -0.083144456 0.043238435 -0.056061156
0.01504996 0.032567777 -0.038359527 0.053029828 -0.014183418 -0.044282157 -0.03990054 -0.05683948
-0.02751634 -0.032030787 0.07368515 -0.019567009 0.06823534 -0.039147567 0.03519485 0.06713062
-0.0730442 -0.040347595 -0.03559865 0.03355491 0.018197816 0.030334348 -0.052409977 0.04249826
0.011711632 0.035715193 -0.026318546 -0.0059763333 0.027558463 0.035369243 -0.048677847 0.020717602
0.029882817 -0.05980076 -0.034614597 -0.031228337 0.01805343 -0.030736085 0.009207297 0.037737418
-0.062340688 0.0681007 0.054047696 -0.3604362 0.029855588 0.07210572 0.03187042 -0.04794718
-0.019851843 0.04504033 0.0503376 0.03682888 -0.08010723 -0.093781725 0.116024055 0.040615134
0.028604351 0.012067551 0.057516668 -0.057657618 0.048026662 -0.077132225 0.040581327 -0.083312675
0.04948302 0.018620094 -0.08818033 -0.010552304 -0.019209865 0.06717658 -0.31311634 -0.08367328
-0.1977765 -0.06836552 0.048355903 -0.061518084 -0.049805373 0.008500263 0.0415403 0.03539302
-0.06599547 -0.07077845 -0.05832753 0.03267222 0.049787946 0.04285042 -0.037157893 0.037389055
0.07757704 0.015856288 -0.018471994 0.00017277333 -0.0045561353 -0.051297225 -0.10049878 0.060294017
0.0303985 -0.08256637 -0.23868641 -0.04439962 0.03219585 -0.055345643 0.042303022 0.025960403
0.003890694 0.0041436832 -0.07459547 0.0083051445 0.034873545 0.12968081 -0.010365388 -0.1056447
-0.039941736 0.032075174 0.031766005 0.045063756 0.05372992 -0.070931606 0.053596612 0.03665835
0.04060524 -0.08460364 0.04075233 -0.043593816 0.010227895 -0.049960896 0.030904414 -0.07676825
0.02101944 0.022961665 0.020230992 0.054315448 0.02979259 0.0019526777 -0.18759611 -0.07942153
-0.25450093 -0.0563378 0.038625974 0.06715858 0.06209735 0.03917994 0.026279593 -0.011954307
0.04805176 -0.059481896 -0.048363965 0.021723486 0.06366672 0.03700014 -0.061363645 0.040331844
-0.06486819 0.029704329 0.04804199 -0.002430659 0.040704682 0.090004295 -0.07961036 0.037040565
0.024001863 -0.05015416 -0.13813782 -0.0469222 0.035196137 -0.07371918 0.0018454558 0.014957521
0.018323177 0.0029202332 0.017467715 -0.20882086 0.023927737 0.13551395 0.011032628 0.016798943
-0.060530104 0.02330613 0.04333575 0.04403611 0.031465 0.00080236763 -0.11403761 0.039526455
00000000: a464 d13c cd97 85bd 435e d23c e530 89bd
00000010: f4b0 ec3c b639 80bd d945 f83c 9e4c 3bbc
00000020: 2ec6 e93c 0d5e 0f3d 65de 9ebd a396 b73c
00000030: a6e4 a0bc 2cd2 34bd b860 9cbe 8fe7 c9bd
00000040: f73f 8dbe e6bc 88bd 65de 1e3d a6eb 35bd
00000050: 9159 523d 74f9 2e3d fcd9 d93c 4af6 72bd
00000060: 1a81 443c 7f0c b1bd 46db 63bd 5581 953c
00000070: 3bce 123d 4cd8 cc3c bbcb 89bd 9c34 fc3c
00000080: 5ea9 df3c 844c 1f3d 7ca2 733d 578b e5bc
00000090: c337 e83c b8af b5bd eabc fbbd 52c1 f63c
000000a0: acab a03c f7e8 82bd 01b8 72be afca 92bd
000000b0: 632c 043d b642 c0bd 8e45 403d e3b2 273d
000000c0: c1aa d639 6a87 193d 74f2 87bd 767d b8be
000000d0: dbc1 ce3c 49e1 2abd 9623 263d add5 60bd
000000e0: 5a9d a9bd 0a2c f53c ecd1 fd3c 08fe a83c
000000f0: 4671 bdbd c2bf 11bd 4217 e73c 619c d63c
00000100: d262 3f3c 1039 f8bc 9f7d f33c 89eb 72bd
00000110: 2629 fe3c a447 aabd c91a 313d 62a0 65bd
00000120: 1c94 763c ca65 053d e11e 1dbd ce35 593d
00000130: 9161 68bc 3561 35bd c06e 23bd 84d0 68bd
00000140: f369 e1bc b732 03bd 3de8 963d fe4a a0bc
00000150: f8be 8b3d 3359 20bd 7a28 103d c77b 893d
00000160: 3398 95bd 8543 25bd e4cf 11bd e070 093d
00000170: 9613 953c bd7f f83c d8ab 56bd a812 2e3d
00000180: 25e2 3f3c 184a 123d fe99 d7bc 1ed5 c3bb
00000190: 49c2 e13c 57df 103d 6c62 47bd f6b7 a93c
000001a0: cfcc f43c a4f1 74bd 09c8 0dbd 92d2 ffbc
000001b0: c9e4 933c 3eca fbbc 34da 163c 8d92 1a3d
000001c0: f358 7fbd 6178 8b3d 1e61 5d3d 188b b8be
000001d0: b593 f43c 2aac 933d 8f8a 023d 4364 44bd
000001e0: 55a0 a2bc 367c 383d cd2e 4e3d e1d9 163d
000001f0: 420f a4bd a210 c0bd 059e ed3d 0e5c 263d
00000200: ac53 ea3c fab6 453c 9996 6b3d 652a 6cbd
00000210: 9bb7 443d 80f7 9dbd 9b38 263d d69f aabd
00000220: b5ae 4a3d 2b89 983c e497 b4bd 92e3 2cbc
00000230: 025e 9dbc e093 893d c950 a0be e65c abbd
00000240: ec85 4abe 3903 8cbd d710 463d 63fa 7bbd
00000250: b800 4cbd b044 0b3c 2926 2a3d 45f8 103d
00000260: a228 87bd 4bf4 90bd d9e8 6ebd 4ed3 053d
00000270: 72ee 4b3d ec83 2f3d e032 18bd 4425 193d
00000280: b6e0 9e3d 0ce5 813c 9452 97bc 7d2a 3539
00000290: a24b 95bb 0a1d 52bd 4ed2 cdbd dcf6 763d
000002a0: 4606 f93c 8f18 a9bd 366a 74be 60dc 35bd
000002b0: ccdf 033d 1db2 62bd ef45 2d3d e9aa d43c
000002c0: 03fb 7e3b bcc7 873b 83c5 98bd 4d12 083c
000002d0: 90d7 0e3d 0ccb 043e 97d3 29bc 405c d8bd
000002e0: f299 23bd 4261 033d 121d 023d c694 383d
000002f0: e813 5c3d 9744 91bd 1f88 5b3d 1127 163d
00000300: ae51 263d ac44 adbd eaeb 263d 6e8f 32bd
00000310: e792 273c cca3 4cbd 412b fd3c ac38 9dbd
00000320: f630 ac3c 1a1a bc3c 77bb a53c e079 5e3d
00000330: 970f f43c fef0 ff3a 3219 40be c1a7 a2bd
00000340: f24d 82be 77c2 66bd 4536 1e3d 708a 893d
00000350: ca59 7e3d 257b 203d 4d48 d73c ffdb 43bc
00000360: ecd1 443d 4aa3 73bd 4b19 46bd 74f5 b13c
00000370: b363 823d 758d 173d 7258 7bbd 0133 253d
00000380: 9dd9 84bd 7e56 f33c adc7 443d b14b 1fbb
00000390: f4b9 263d 2c54 b83d c20a a3bd d9b7 173d
000003a0: 8e9f c43c 736e 4dbd 0074 0dbe 7e31 40bd
000003b0: d329 103d 15fa 96bd 39e3 f13a 6410 753c
000003c0: 7d1a 963c 6261 3f3b 7418 8f3c 23d5 55be
000003d0: 1a04 c43c 2bc4 0a3e 32c2 343c f09d 893c
000003e0: 6aee 77bd 7fec be3c d480 313d 355f 343d
000003f0: 72e1 003d fb55 523a 8d8c e9bd 7ee6 213d

fc3.bias f4 [4]
3.3222475 3.066722 3.1962144 3.1198134
00000000: b49f 5440 2c45 4440 c78e 4c40 06ab 4740
