model.pt (torch_old, 255825 bytes, 25 tensors)

common.0.weight f4 [128, 74]
00000000: 46dd aebd cc02 3abd 60ff 263c d99a 5fbe
00000010: 4f9e 7f3d 84a2 a8bc 3071 983b e16d d53d
00000020: 80fd 9a3b 771d 293e 4256 90bd 2a38 893c
00000030: b283 1abd b0e6 c53c 0e6d 86bb 3a06 863d
00000040: f3db 24bd d6e2 b0be b992 093d 7720 293d
00000050: a3bc 423d 8cf7 9bbd af3e bebd fbed a3bd
00000060: 2173 173e 8ded 2cbe 4f87 b73c 05bf 573d
00000070: 430d 2c3e c393 d8bc 9736 913d 3544 d5bd
00000080: d734 a13c 014a 543e 5d22 0bba 8955 a33d
00000090: de29 173d ba05 fabc e850 7fbd f09d e83c
000000a0: afef 71be f192 d63d 0e05 43bd 4a86 66bd
000000b0: 28f7 223d bc8d 60be c0b4 6ebd 597f 203d
000000c0: 7bff 57bd 1a71 26bd 7905 30be 53d7 953b
000000d0: 3aa8 073e cae9 bf3d fac0 17be 22ae 82bd
000000e0: ab40 fbbd 4097 963c ae02 48be 3088 14be
000000f0: 6d9f 49bd f49b 7cbe 9d08 8dbd 7436 d8bb
00000100: cdda 2fbe 2247 923e 8d3e 083e 750b d33d
00000110: e500 54bd 81aa e3bc 9590 7cbe 1029 283e
00000120: 6319 4d3e 5375 243c f4e9 1f3e 19a7 dabb
00000130: 44dd a1bd ef4f 8bbd 3f88 0bbe 004b e3bc
00000140: d059 393e 29bd e6bc baca b3bc 2a6d 7a3d
00000150: 5ee1 b4bd 29ed dabd 872a 11bd 88fb 19be
00000160: e6ac 9c3d f6f6 1abd c3d0 3fbe 18ed a13d
00000170: 2ceb 7dbe c90e 1cbe fec6 723d f785 043d
00000180: ef63 42be 7f1c de3d b32e 523d 7493 2bbd
00000190: 4865 09be 0635 05be 56a6 abbd b81e 5dbe
000001a0: e7e5 2dbd 52a2 0ebe 58b2 99bd 4daf babe
000001b0: fbcf 163e dfc3 02bd 39f6 bebb ae84 133e
000001c0: b841 18bd df8a 0a3e 4767 1ebe 8233 5cbd
000001d0: f1d3 73bd ee90 c63d 2c27 0e3d 3701 ccbd
000001e0: 1ef9 743e 808a bfbc b2c5 163c f955 bbbd
000001f0: e17f bebd 61d3 193e 7dd4 66bd 20a4 fcbd
00000200: 66d7 a33d 064e a63a 33e2 a93e 580d 683d
00000210: c97f e63c 4232 84bb 8400 cd3d c943 9e3e
00000220: 1633 0f3d e42f 57bd 5a51 27be 1816 ef3c
00000230: d733 40be 03a3 bd3d 554c d4bc cafa f7bd
00000240: c459 84be 251b 303e ee0a 98bb eb26 333d
00000250: 4b8f e0bd 93ba 8e3d beb9 07be f5c3 183e
00000260: ec64 a53c 5447 dfbd 4272 293e 56ca 483e
00000270: f325 14bd 4d89 fa3d b636 a7bc 6f6f f7bd
00000280: fc47 7e3d 5f20 a4bd 14d3 b8be 1984 80bd
00000290: 9b15 7bbd 753b a93d 46f6 3c3d 648c 98bd
000002a0: d4a8 463b 6f3c 223e ab62 e93d f325 f93c
000002b0: 0395 fa3c d57f ed3d ce58 833d 01f3 aa3c
000002c0: 5292 3e3e f5da 04bc 6e08 04be 1a0a 78bc
000002d0: 5a9e 05be f5ac 84bb 4bf3 833e 4796 853c
000002e0: 1b91 1c3d 08ff a93d 9872 c03c 2563 ae3c
000002f0: 13f4 8c3e 9c53 de3d 4ef6 183e c788 c13d
00000300: b04c 39be 8b25 87bd e74d ebbe 039b 093d
00000310: 2bcd 18bb dc27 493d f72e 503e 45bb b3be
00000320: 5d98 033e e932 0cbd 6a49 183e 2041 04bc
00000330: de15 92be 577e 89bd db19 fabd 7c64 1bbd
00000340: 7af4 8ebd e638 a9bc 5228 a9bd c2b3 543d
00000350: 515f 6c3e 2dd7 29be 99c0 703c 4ce3 9dba
00000360: 59fa db3c 63f9 68bb 36fd 7abe e534 b9bd
00000370: 0de2 843d 511a bdbc adae 153e 5758 0dbe
00000380: 4353 3cbd b652 f33d ff12 bbbe 0c2a 743d
00000390: 3d24 9d3d 2f5c b1ba c632 b73d a35b 593e
000003a0: 8987 a13c 354a 713e d091 813c 98eb 4f3b
000003b0: 6af9 1d3d 394d fd3d fd58 f33d 542e c9be
000003c0: 1bcf 17be 9c83 0abf f7ec 423d 1307 b73d
000003d0: b02e 103d e650 4abd 42df 36bd bcdb c2bc
000003e0: 444c 82bd 0d5a da3d 2e63 a2bd 0832 513c
000003f0: 4867 ca3d c713 07be 53cc 453c 7127 83bd
-0.08538298 -0.045412824 0.010192722 -0.21836413 0.062406834 -0.020585306 0.004652165 0.10421348
0.0047299266 0.16515146 -0.07047702 0.016750414 -0.03772325 0.024157852 -0.004102356 0.065441564
-0.040248822 -0.34548062 0.03358719 0.041290727 0.04754318 -0.07615575 -0.092893 -0.080043755
0.14790012 -0.16887493 0.022403387 0.052672405 0.16801934 -0.026437646 0.0709049 -0.104134
0.019678516 0.20731355 -0.000530755 0.07975299 0.036905162 -0.030520309 -0.062333018 0.028395623
-0.23626588 0.104772456 -0.047612242 -0.05628041 0.039786488 -0.21929067 -0.058277845 0.03918395
-0.05273388 -0.040635206 -0.17189588 0.004572788 0.13247767 0.093707636 -0.14819708 -0.063808694
-0.12268194 0.018382668 -0.19532272 -0.14505076 -0.049224306 -0.24668866 -0.068864085 -0.006598288
-0.1717331 0.28569895 0.13305111 0.1030492 -0.051758666 -0.027791264 -0.24664529 0.16421914
0.20029216 0.010037738 0.1561659 -0.0066727516 -0.07903531 -0.068023555 -0.13626193 -0.027745724
0.18100667 -0.02816637 -0.021947253 0.061139263 -0.08832048 -0.10689766 -0.035440948 -0.15037358
0.07650165 -0.037833177 -0.1873198 0.0790655 -0.24796742 -0.15240015 0.059271805 0.03235432
-0.18983434 0.10845279 0.051314067 -0.04188867 -0.13417542 -0.13008508 -0.083813354 -0.2159375
-0.04245558 -0.13929108 -0.075047195 -0.3646187 0.14727776 -0.03192508 -0.005827692 0.14406082
-0.03717205 0.13529538 -0.15469085 -0.05376006 -0.059528295 0.09695612 0.034705326 -0.09961169
0.23923156 -0.023381472 0.009202408 -0.09147257 -0.09301735 0.15022041 -0.05635499 -0.12335992
0.08000068 0.0012688048 0.3318039 0.05665335 0.028137105 -0.0040343115 0.10009864 0.3091109
0.03496083 -0.052535906 -0.16339627 0.02918534 -0.18769775 0.09259608 -0.025915304 -0.12108381
-0.25849736 0.17197855 -0.004639975 0.043738287 -0.10964831 0.0696918 -0.13254449 0.14918502
0.020189725 -0.10902277 0.16547492 0.19608435 -0.036169004 0.12233219 -0.02041183 -0.12081801
0.06208037 -0.08013987 -0.3609854 -0.06275196 -0.0612999 0.08263294 0.046133302 -0.074486524
0.0030313032 0.15843366 0.113957725 0.030413603 0.030588632 0.11596648 0.064134225 0.020867826
0.18610504 -0.008108844 -0.1289384 -0.015139127 -0.13048688 -0.0040489384 0.25771555 0.01630701
0.03822432 0.083005965 0.023492143 0.02128751 0.27529964 0.10855791 0.14937708 0.09449916
-0.1809566 -0.06598958 -0.45957872 0.033595096 -0.002331565 0.04911028 0.20330416 -0.35103813
0.1285109 -0.03422824 0.14871755 -0.008072168 -0.28532308 -0.067135505 -0.12211963 -0.037937626
-0.06980224 -0.020657014 -0.082596436 0.051929243 0.23083235 -0.1658599 0.014694356 -0.0012045889
0.026852774 -0.0035549037 -0.24510655 -0.09043292 0.06488428 -0.023083838 0.14617415 -0.1380323
-0.045977842 0.1188101 -0.3653793 0.05961041 0.076729275 -0.0013531501 0.08945231 0.21226363
0.019717949 0.23563464 0.0158166 0.0031726118 0.038567938 0.12368245 0.118822075 -0.39293158
-0.14825098 -0.5410707 0.04758927 0.08936896 0.035200775 -0.049393557 -0.04464651 -0.023786418
-0.06362203 0.10661707 -0.07929073 0.012768276 0.098829806 -0.13191138 0.0120726405 -0.06404007

common.0.bias f4 [128]
00000000: 420f cfbc be68 b53d e61f e63c 4c19 8abd
00000010: 9506 3dbd 3ccc 9c3d 46c5 fa3c 4171 52bd
00000020: 2e9f b43d 7b2e 40bd 4940 90bc 32a1 8abd
00000030: 101a e43c defe a53d 5daf 03bd a4cc 6fbd
00000040: 9779 86bc 66e2 893d d444 e03c 7414 aebd
00000050: b4d5 6fbd 2777 b8bd f422 0d3d 22b1 2f3c
00000060: f468 a63c 6e74 ad3d 7a68 51bd c2f0 dabc
00000070: fa54 0f3c 589d 453d 9ba9 9cbd b23a f93d
00000080: f69e 983d 42cc 933d cfcb 5cbd c598 113d
00000090: 9dd2 a63d b3db a13d bea2 e9bc b0de 423d
000000a0: 3510 a73c 6265 d0bd 1de6 893d ab3c debc
000000b0: 243f 9b3c 1190 293c 9002 3fbd d74c 49bd
000000c0: e18d 793d 7cf2 4ebc 9eaa 5e3d 8dce b43d
000000d0: 731c c8bc 60b4 7d3d 7544 3cbd 1e3e ce3d
000000e0: bfbd 883d 2119 e33d d48d 003d 2e31 cabd
000000f0: 4b0b b53b 9b1d 503d 44c0 39bc f759 5bbd
00000100: 8290 af3c c2bf b13a b036 42bd cbff 7e3d
00000110: 5da4 503d eb84 57bd e3c0 973c 75d9 8dbd
00000120: c61f dd3d 8922 c63d 24f0 e8bd 6854 59bc
00000130: 831d 9dbd 2340 5f3c 413c a3bd c791 123e
00000140: 336e 13bd 8610 cebc 4b05 d8bd 88cf d7bd
00000150: 8bae ba3c f717 51bd 3e91 183d 4e85 e93c
00000160: 9476 42ba 8305 1dbd 238b c9bd e282 283d
00000170: e099 efbd 7d97 69bd 7249 8cbd befd 543d
00000180: d840 5abd d6c4 c73c ae02 bebd a14e a2bd
00000190: 6db4 0e3d 98c0 f23d e69d 59bd 7c5c 7d3d
000001a0: 3c45 c53c 58ba 51bc 4341 d1bb e10c 563d
000001b0: 350e f93c 2421 683d 69e0 d5bb abcb 8dbd
000001c0: 7985 743c 7b99 ebbd b8bf a13d 9c7c 903c
000001d0: 85ae 62bd 764d 18be 2869 f2bd 36ac aebc
000001e0: d72e 703d 1b94 53bd d9fc 3b3d e8ec b83d
000001f0: ddc7 e23c c0fc babd 9759 273d fc59 203d
-0.02527583 0.088578686 0.028091382 -0.06743106 -0.046148855 0.07656142 0.030611645 -0.05137754
0.088194236 -0.046919327 -0.017608779 -0.06769027 0.027844459 0.08105253 -0.03214966 -0.05854477
-0.0164154 0.06732635 0.02737657 -0.08499995 -0.058553413 -0.090071015 0.034457162 0.010723384
0.020313717 0.08469473 -0.051125027 -0.02672613 0.008748287 0.048245758 -0.07649537 0.12169398
0.074521944 0.072166935 -0.053905305 0.035546083 0.0814564 0.079032324 -0.028519984 0.047575653
0.02039347 -0.10175587 0.06733344 -0.027128538 0.018951006 0.0103492895 -0.046633303 -0.049145546
0.060926322 -0.012631055 0.054361932 0.08828459 -0.024427628 0.061939597 -0.045963723 0.10070442
0.06676816 0.11088777 0.031385258 -0.098726615 0.005525028 0.050809484 -0.011337344 -0.053552594
0.021431211 0.0013561177 -0.047415435 0.062255662 0.050938 -0.052616995 0.018524593 -0.06926242
0.10797076 0.09674556 -0.11373928 -0.013264753 -0.076716445 0.013626131 -0.07970477 0.14313422
-0.035993766 -0.025154363 -0.105478846 -0.1053763 0.022788307 -0.051048245 0.03724789 0.028505947
-0.0007418182 -0.038335335 -0.09840991 0.041140445 -0.11699271 -0.057029236 -0.06849946 0.0519998
-0.053284496 0.02438585 -0.09277855 -0.079251535 0.034840036 0.118531406 -0.0531291 0.061855778
0.024080865 -0.0128007755 -0.0063859536 0.052258376 0.030402282 0.05667223 -0.006526996 -0.06923612
0.0149244005 -0.115038835 0.078978956 0.017637543 -0.055342216 -0.14873299 -0.11836463 -0.021322351
0.05863842 -0.051654916 0.04589543 0.09029561 0.027683193 -0.091302395 0.040856924 0.039148316

common.2.weight f4 [128, 128]
00000000: ffbb b5bd ce3a 403d 4d31 ab3d 9344 96bc
00000010: 6b03 67bd 97a6 f13d 44d1 103e 1b67 c4bc
00000020: 4bf5 c53d f94a c23c 1f94 65bd 5c7e dc3d
00000030: 00b3 76bd 1a47 ec3d 5efe 9ebd 0a68 e7bd
00000040: 0597 3d3d 757f 753d 5b4e 3bbe 7216 1fbe
00000050: 7c25 a1bd 433f 003e d84e 6d39 3f36 a33c
00000060: 5369 acbc 8036 ec3d 5796 9b3d bca8 f1bd
00000070: 6d40 5e3e 640a 5c3c 3875 7cbe d52d de3b
00000080: ce95 bcbd 46bd 57bd c45b 3abd b91e 07be
00000090: 57f8 1b3e ea4d 7f3d 4b3b 65b8 b4fd 6c3d
000000a0: 2144 253d c16d 84bd f3e0 c83c 5d1f c2bc
000000b0: 1461 e13d 3b78 90bd 6f53 fdbc a507 c0bd
000000c0: a5b4 94bb 71c2 4bbd 674c e7bd 4eab 093d
000000d0: 260d efbd 7fa7 b93d 98b6 1abd 0237 a53d
000000e0: fc8b fbbd 98f3 093e 7f16 98bd a741 df3d
000000f0: 8412 50be 5ba9 103e 1270 dcbc fa0c c23d
00000100: 66f1 753d 6e09 90bd cb1a 793d 30b9 333e
00000110: 9187 8cbd 622b 02be 6bf7 ff3c c912 463b
00000120: 3bdc 0a3e ba07 3bbd ad2d 8d3d f506 873d
00000130: 4685 0bbe bc58 483c d9df a2bd eea5 eb3c
00000140: ee04 06be 101e 08bd 9bb5 1e3e eda1 13be
00000150: 0203 b0bc 7058 4f3e 8311 3e3d ae48 103c
00000160: 18a9 23be 513e 613d 90c5 5bbd a31c d43b
00000170: a0aa a2bd 1e80 debd f4c3 3abe a2a3 2d3d
00000180: a2ff 223e b158 ea3d 8e35 12bd fa87 ebbc
00000190: 4420 893d f9c1 36bc 53f2 d13d 8592 f23d
000001a0: 5294 d0bd adbb 37bd 228e 2cbe f072 1c3e
000001b0: 3bb6 32bd 56ac 51bc 7454 acbd 4942 463d
000001c0: 4fa8 813d 989a cd3d 4a9c a03c 917a fa3c
000001d0: 22d6 c7bd 9d13 193d 40c3 69bc ce76 f13d
000001e0: 983e f7bd 5356 533c b1ea d43a 5728 5c3e
000001f0: eab4 01be 4fa3 5b3a f372 6d3e 093f a33c
00000200: add5 253d e706 d13d 70c6 6abd 783d 553e
00000210: 6c38 ba3c 9cad d33d 6f39 db3d 17c9 a33c
00000220: 0dd6 0bbe c43f 99bd d1cf cdbd b98e f03c
00000230: 1947 6fbd f888 623d a107 6f3d 2240 19be
00000240: 796f 0c3c 2b29 3bbd 0cf7 91bb 75ab ea3d
00000250: 1281 f6bd 4b69 1f3d 5bf4 fa3b 5eb0 8dbd
00000260: 11f0 583e 5d8d aa3d 55d4 55be ed53 00bd
00000270: 6c27 083c 6dbd bebd 8fa8 7f3d 7479 82bd
00000280: 3f4d 4fbd 478b b13c 8808 30be cfaf dbbb
00000290: c700 3fbe af55 18bd 5406 76bd 2b10 a63d
000002a0: 3ef2 a8bd 1d44 e7bc a769 3cbd 8c20 1d3d
000002b0: 782a 783c b946 5a3d f063 c43d 0930 6ebd
000002c0: 3f17 053e eb2e 313c 6f3f 0b3d b153 843d
000002d0: efc0 32bd 0d99 c3bc fa6d 473c 98e7 04be
000002e0: 3399 083e fd19 3c3d 4b14 99bd c412 39be
000002f0: 9d75 0b3e b307 60bd 6dbd 15be 6410 2d3d
00000300: bf33 1e3e 0afe 6bbd e32d 3b3d 2677 f33d
00000310: 102b 92bd 0d15 34bd 9339 a5be 97ee 4dbd
00000320: 445b 143e 255d 693d bda3 e5bd aea1 1a3e
00000330: cfc9 70bd fdff 273d 8790 263d 0ce8 dbbc
00000340: d764 9cbd eb65 283c 433f d5bd 5ec7 f6bc
00000350: ec64 9cbe 9220 20be 2a6e 4d3e 6dd3 9b3d
00000360: 7f30 5ebd 26c1 a9bd 5f48 8c3d 2352 ac3b
00000370: eb6a 18bd 5549 61bd ae57 6fbd e320 b3bd
00000380: 23a3 f33c e984 02be e376 75be c966 293e
00000390: 34ec 52bc b8b2 273d 9b2c 403d 6404 8bbd
000003a0: a1fa 1fbe 9a90 acbd 1ed3 82bd bd41 b7bc
000003b0: 0872 df3d 9382 6ebd 4cf6 1cbe f1c4 0cbd
000003c0: 7796 a93c 435f 04be 30d7 213d e83d ad3d
000003d0: 65d3 973c c519 80bd 391d 13be 6b27 513e
000003e0: a6c3 40be f9d8 24bd 988d 153d 3734 31bc
000003f0: b2b1 8e3d 5b10 7fb8 bb57 703c 63d7 203d
-0.08873748 0.04693108 0.08359013 -0.018343246 -0.056399744 0.117993526 0.14142329 -0.023974946
0.096659265 0.02371739 -0.056049462 0.10766289 -0.0602293 0.11536999 -0.077633604 -0.11299141
0.0462866 0.059936006 -0.18291609 -0.15535906 -0.07868478 0.12524132 0.00022631453 0.019923327
-0.021046316 0.115338326 0.075970344 -0.11799762 0.21704264 0.013430212 -0.2465409 0.006780366
-0.092082605 -0.05267074 -0.04549767 -0.13195314 0.15231453 0.062330164 -5.4653075e-05 0.057859138
0.040348176 -0.064662464 0.024521327 -0.023696596 0.11004844 -0.07054182 -0.030923573 -0.09376458
-0.004538136 -0.04974598 -0.112938695 0.033610635 -0.1167243 0.090651505 -0.03777179 0.080671325
-0.12282559 0.1347183 -0.07426166 0.10901194 -0.20319563 0.14127104 -0.026908908 0.09475131
0.06004467 -0.070330486 0.060816567 0.17551112 -0.06861795 -0.12711862 0.031245908 0.00302236
0.13560574 -0.045661665 0.068934776 0.06593124 -0.13625059 0.012228187 -0.07952852 0.028765645
-0.13087818 -0.033231795 0.15498964 -0.14417239 -0.02148581 0.2024858 0.04640342 0.008806391
-0.15982473 0.05499107 -0.053655207 0.0064731403 -0.079427004 -0.1086428 -0.18238813 0.04239238
0.15917829 0.11442698 -0.035695605 -0.028751362 0.06695607 -0.011154645 0.10251298 0.11844353
-0.1018454 -0.044856716 -0.16851094 0.1527822 -0.04363082 -0.012797436 -0.08414546 0.04840306
0.063309304 0.10039252 0.019605774 0.030576022 -0.097576395 0.03737222 -0.014267743 0.11790238
-0.12072486 0.012898999 0.001624426 0.21499763 -0.1266667 0.0008378522 0.23188381 0.019927518
0.04048698 0.10206395 -0.05731815 0.2082423 0.022731982 0.10335848 0.10704314 0.019993348
-0.13655873 -0.074828655 -0.100494035 0.02936493 -0.058417413 0.055306405 0.058356885 -0.14965871
0.008571499 -0.045693558 -0.004454499 0.11458484 -0.12036337 0.038918775 0.007658524 -0.06918405
0.21185328 0.08327744 -0.2088178 -0.031330038 0.00831018 -0.09313474 0.06241661 -0.063708216
-0.050610777 0.021672858 -0.17190754 -0.0067043076 -0.1865264 -0.03719109 -0.06006463 0.081085525
-0.08249329 -0.028230721 -0.045999195 0.038361117 0.015146844 0.053290103 0.09589374 -0.05815128
0.12997149 0.010814409 0.033996042 0.06461275 -0.043641027 -0.023876691 0.012172217 -0.12978971
0.13339691 0.04592322 -0.07474574 -0.18073565 0.13619085 -0.054694843 -0.14623041 0.04225196
0.15449427 -0.057615317 0.045698058 0.1188796 -0.0713712 -0.043965388 -0.32270488 -0.050276365
0.1448794 0.056973595 -0.11212871 0.15100738 -0.05878621 0.041015614 0.040665176 -0.026844047
-0.07636421 0.010278205 -0.10412457 -0.030124363 -0.30545747 -0.15637425 0.20061556 0.07608686
-0.05424547 -0.08288793 0.06849741 0.005258815 -0.03721134 -0.055001575 -0.058433227 -0.08746507
0.029740876 -0.12746014 -0.23971133 0.16543116 -0.012873698 0.040941924 0.04691754 -0.06787947
-0.15622951 -0.08426018 -0.06387924 -0.022370214 0.109104216 -0.058229994 -0.1532833 -0.034367505
0.02070163 -0.12926964 0.03951186 0.08459073 0.018533418 -0.06254915 -0.14366616 0.20425193
-0.18824634 -0.040245984 0.036511987 -0.010815672 0.069674864 -6.081197e-05 0.014669354 0.03926791

common.2.bias f4 [128]
00000000: dc13 a2bb 4477 613d 6806 1e3d 6d01 863c
00000010: 5b85 82bc d324 6b3d b41d 943c a368 b4bd
00000020: 6c45 9bbd 2185 043d 519e 373d 141b 903b
00000030: 82ac b3bb 6b4d e93b 2096 d43c 05d7 f6bc
00000040: 29d0 9b3d 1466 dcbd 9b6f e1bd 8a8c 09bc
00000050: a5c4 d0bd ba71 ac3d 9d4e 30bd 73df 38bd
00000060: bbcf 9abd a204 d6bb ba18 ad3d e8c0 75bc
00000070: 61ba bbbc d473 693d db19 ceba 0c5d d2bc
00000080: 1d27 62bc f968 10bc ce93 9abb 04d9 a13c
00000090: be2f 533d 0f3c 1abd 1ee8 1fbb 781c 0fbd
000000a0: f09e 6a3d 6b1e a6bc d37b 443d a18c ae3d
000000b0: bde8 833d 985d 27bd b8ae 55bc 091f b9bc
000000c0: bf45 273c 195e 13bd d869 7c3d b6a1 93bd
000000d0: 0ba7 38bd 5950 9f3d 7c80 54bd 0dbf 8bbd
000000e0: 78d6 443d cdbb 9e37 5604 753c 7ebe 193d
000000f0: 247e 18bb 1f6b 4c3d 72dc eb3d cc59 a3bc
00000100: d041 a23c 66fb a9bc baa5 603d f85f bebc
00000110: c083 243e e058 f93c 6281 70bd ce83 dc3c
00000120: f26d c5bd 3a60 c63c 05ef 193d aa3b 51bd
00000130: 069f fbbd 14c7 0cbd 76df d33a b34c 81bb
00000140: 834d 7ebd 7994 943d 5a11 a43c 6be1 38bd
00000150: c929 e63c 003c 15bd 200b 30bd b25d 963d
00000160: 41da babb 76cd b13c d4e3 bcbc 280b 3abd
00000170: 67d7 d13d 2d6d d4bd 567b adbc 9fca b23d
00000180: 6f5d be3b 13da b53d a7c9 2f3d e71c 9c3b
00000190: 619a f33d c73d f9bc 9b03 5f3c 2bbd 9e3b
000001a0: d95b a23d 272e 49bb 3861 773c a622 5dbd
000001b0: 63a8 1f3d 67f4 433d 41d1 803d 3c97 adbd
000001c0: 963a a2bd f038 d73c 4f6d e53d b07b 42bd
000001d0: bc7f 183d 6f6b cb3b ddf8 8e3c c4bf b93d
000001e0: 6aed 58bb e670 633b e523 67bc a7ab 23bb
000001f0: 72d1 17be 11fe 0bbd 74ee 53bd 7b89 873d
-0.004946215 0.05504538 0.03858033 0.016358102 -0.01593273 0.057408165 0.01808057 -0.0880902
-0.075816005 0.032353524 0.044828717 0.004397759 -0.005483211 0.0071198246 0.025950491 -0.030131826
0.07608063 -0.10761657 -0.11007615 -0.0083953235 -0.10193757 0.08420129 -0.04304372 -0.045134973
-0.07559153 -0.006531314 0.08451982 -0.014999606 -0.02291602 0.056995228 -0.0015724258 -0.025679134
-0.013803271 -0.00881409 -0.0047173267 0.019756801 0.051559202 -0.037654933 -0.0024399827 -0.03493926
0.05728048 -0.020278176 0.04796965 0.085229166 0.06440876 -0.040860742 -0.0130421445 -0.022597807
0.0102095 -0.03597841 0.061624378 -0.07208578 -0.04508118 0.07778997 -0.051880345 -0.068235494
0.048056096 1.892252e-05 0.014954647 0.037535183 -0.0023268545 0.049906846 0.11516656 -0.01994028
0.019806772 -0.020749759 0.05484555 -0.02323912 0.16065884 0.030437887 -0.05871714 0.026918318
-0.09640111 0.024215806 0.037581462 -0.05108229 -0.12286191 -0.034369543 0.0016164619 -0.003945911
-0.06208564 0.072548814 0.020027805 -0.04513685 0.028096097 -0.036434174 -0.04297936 0.0734209
-0.0057022874 0.021704417 -0.023057856 -0.045420796 0.10246163 -0.10372386 -0.021176975 0.08730053
0.005809478 0.08879485 0.04291692 0.0047641876 0.1189468 -0.030424966 0.013611699 0.004844328
0.07927675 -0.0030697675 0.015098862 -0.05398812 0.038978945 0.047840502 0.06289912 -0.08476111
-0.07921331 0.026272267 0.112024896 -0.04748124 0.037231192 0.0062078754 0.017452652 0.090697795
-0.0033100494 0.0034704744 -0.014107679 -0.002497414 -0.14825991 -0.034177843 -0.05174108 0.06618019

common.4.weight f4 [128, 128]
00000000: 4d47 2abe a23f cabc 684e e53d 0dc2 7ebd
00000010: 1df6 aa3d f652 7ebe e79f 9abd 842f 43bd
00000020: fdac fd3d c2ad 163e 2531 d5bd 3088 16be
00000030: c573 bb3c d49b 873d 0183 0b3d 9c9d 973d
00000040: 5e63 bbbd dd33 9139 e783 493e af88 16be
00000050: 40aa 1fbe a0b9 cc3d da9a 0e3d 4d83 7cbe
00000060: 47ad e1bd ecdd 523e fcb9 61bd 7dc8 ce3b
00000070: a9ff cabd abc2 b53d 42ba e3bc 4cd7 ebbd
00000080: f810 43be a3ab 9abd e91a d0bd f7fc 41bd
00000090: 35e2 2f3e 17ce 8fbe 3f5c d3bd 802d 93bc
000000a0: 53ea 0b3d 15da 193c 8221 513e 434e eabc
000000b0: bd59 bf3d 4318 e43d 58c3 903d 4c5b f93d
000000c0: 455a 193b a008 1a3c 496d d23d a5f0 823c
000000d0: 342b e9bb d2f1 2ebe 272e dc3d e1b9 c73d
000000e0: a3e4 32bd 335c b5bd 5bd4 b33c e936 063e
000000f0: d764 ce3c e7c1 b03d 8a9f d0bc 7a03 743e
00000100: 1329 e8bd 3261 30be f280 0ebe e77a 9fbe
00000110: 3e5a 7b3d 46c3 a9bc 8b55 423d 6617 adbb
00000120: 796c ec3d ff7b 1a3d 2f41 c13d 1450 e0bd
00000130: 3aef 743d dc36 8d3b 4b48 88bd 2d6f aabe
00000140: d03d 31bd a4b6 073e 5f86 72bc 44c6 95bd
00000150: 0fcd 223e b13b 68bd 96a2 0b3e ee73 d0bd
00000160: d446 a03c 8146 82be 9229 37be c4f2 03bd
00000170: 0e83 72bc cafc 003e 29d0 23be df5a b0bd
00000180: c0b5 e03d 70fd 1a3e 2bda a93c 06fc 28be
00000190: 435f c0bc 7d8d cc3d b989 b13c fad3 2abd
000001a0: d5b1 b03c ed1b b3bd bfaa 59be c148 d9bc
000001b0: 3dfb 95bd e9bf 3c3e d042 a83d b878 56be
000001c0: fdad 4c3e e9a2 b83d af2f 373e c5aa 2c3c
000001d0: 1dc9 acbd 25b7 013e a592 3e3e b48d 21bc
000001e0: 6666 263e 8a9d 483d 508a 21bc 6c5f f33c
000001f0: 9d00 3d3e 57e5 a1be 8c8a 63bc 4fd6 a23d
00000200: 3d56 ac3d fb7f b23d 5964 25bd 39aa d7bd
00000210: 4b1f b8bd a99d e43d 0487 ce3c f29e b03c
00000220: bbf6 8bbd 0dc9 bdbc dcf6 c83d 7b3b 91bd
00000230: 7454 f23c 66a4 f83d dccf c03c d9da 7e3d
00000240: 9229 ba3d e62b 91bc 909c e33d 5e14 943d
00000250: ff7f 23bd 55de 133d 56ad 69bd 374a 71bd
00000260: abcf e93c bf46 fb3c afb4 9abd d1ed 083e
00000270: 43fc f4bc 746e d13d 2a27 0a3d e149 66be
00000280: 65fb 1a3d 838b 8bbb b642 213e 9654 bd3d
00000290: 2609 26be fd4e 66be ddb8 5cbc fb2f 5e3d
000002a0: 5329 983d b085 8b3d 84ec 513e bdcd a63d
000002b0: a07f 31be b409 0dbe 25a2 83be dad4 133e
000002c0: e895 4b3c 5799 153c a04d 433d 0053 f1bd
000002d0: 6fcd 26bc 303b 9e3d 3d05 103e 644b 403c
000002e0: 7a7a 20bd f81b 18bd 6223 71be f740 4c3c
000002f0: 0659 293d 42f2 c7bd bfb6 1fbc c95f c63b
00000300: 0b2e aabd 15eb 1b3d 2f42 d23c 0622 4ebe
00000310: 04ce e13d f529 1d3e 6339 fcbd 283b bebc
00000320: 584d d5be 12cb 61bd e740 2fbd a958 543d
00000330: b9ee 533d 27da 933c 25bb 4f3d 11dc bfbd
00000340: b32a 943d f74e f23d dda4 cebd 2461 9b3d
00000350: fe3d 47bd 4528 503d 1a33 033c ffca f93c
00000360: 514f 83bd 291f a5bd 3023 0a3e 0322 ccbd
00000370: 90ea 953d 2949 cb3c 7d9e 74be 90fb 8bbe
00000380: dc71 e13d b434 4b3e d164 34bc ba95 273e
00000390: 4ba8 833c 604e 6dbe 7537 173d aadc 9d3d
000003a0: 711f 1e3e 563a be3d 8e3c 90be 4ceb 283e
000003b0: 44f7 7b3d 6ff9 663d e94b a7bd 3934 613b
000003c0: 5dc5 6cbd 96c0 693d 4314 6d3e 3cde a53d
000003d0: baea 043e bf3a 5d3d 3295 663d a92f cb3c
000003e0: 5ba2 1e3d a044 a8bd 55a8 0dbe 9c96 53be
000003f0: 43fc 723d d6f9 f5bd 1303 93bc 1f8f 7cbd
-0.16628762 -0.024688546 0.111965954 -0.06219678 0.08347724 -0.24836335 -0.0755003 -0.047652736
0.123865105 0.14714721 -0.10409764 -0.14700389 0.022882352 0.06621519 0.034060482 0.074031085
-0.09149812 0.00027695196 0.19679223 -0.14700578 -0.15592289 0.09996343 0.034815647 -0.24659462
-0.11019378 0.20592469 -0.05510901 0.006310521 -0.099120446 0.088750206 -0.027798776 -0.11515674
-0.19049442 -0.07552268 -0.10161383 -0.047360387 0.17176135 -0.28086922 -0.10320329 -0.017966032
0.034159016 0.009390374 0.20422938 -0.028601771 0.09343288 0.1113744 0.07068509 0.121756166
0.0023399752 0.00940147 0.10274751 0.015983889 -0.007115746 -0.17084435 0.1075099 0.097522505
-0.043675076 -0.08855476 0.021951845 0.13106884 0.025194569 0.08630734 -0.0254667 0.23829451
-0.11335959 -0.17224577 -0.13916376 -0.31148455 0.06136536 -0.020722996 0.04744486 -0.0052823303
0.11544127 0.03771591 0.09436261 -0.10952774 0.059798457 0.0043095183 -0.06654414 -0.33287945
-0.04327184 0.13253266 -0.014802544 -0.07313207 0.15898536 -0.05669755 0.1363624 -0.10178362
0.019565023 -0.25444415 -0.17886952 -0.03221394 -0.014801754 0.12596431 -0.15997376 -0.08611082
0.10972166 0.15135741 0.020733913 -0.1650239 -0.023482924 0.09987924 0.021672117 -0.041706063
0.021569172 -0.08745561 -0.2125654 -0.02652395 -0.073233105 0.18432583 0.082158685 -0.20944488
0.19988246 0.09015448 0.17889284 0.0105387615 -0.08436797 0.1266752 0.18610628 -0.009860445
0.1625 0.048978366 -0.009859636 0.029708587 0.18457265 -0.31620285 -0.013888013 0.07951032
0.08414886 0.087158166 -0.040378902 -0.10530514 -0.08990344 0.11162884 0.025210865 0.021560166
-0.068341695 -0.023167158 0.0981271 -0.07091423 0.029581286 0.121407315 0.023536615 0.06222043
0.0908996 -0.017721128 0.11113846 0.07230447 -0.03991699 0.036100704 -0.05705007 -0.058908667
0.028541407 0.030673383 -0.07553994 0.1337197 -0.029905444 0.102261454 0.033728756 -0.2248912
0.037837405 -0.0042585745 0.15748104 0.09244649 -0.16214427 -0.22491069 -0.013471809 0.054244976
0.07429757 0.06812608 0.2050038 0.0814471 -0.17333841 -0.13773233 -0.25709644 0.14436665
0.012425877 0.009130797 0.04768145 -0.11783409 -0.010180815 0.07726133 0.14064498 0.0117367245
-0.039179303 -0.037136048 -0.23548654 0.012466661 0.041344665 -0.09763004 -0.00974816 0.006053899
-0.08309563 0.03806599 0.025666324 -0.20130166 0.110256225 0.15348037 -0.12315633 -0.023221567
-0.4166057 -0.055125304 -0.042786505 0.051842365 0.051741336 0.01804836 0.050715584 -0.09368146
0.07234707 0.118314676 -0.10090039 0.075868875 -0.048643105 0.050819654 0.008007789 0.030492304
-0.06411613 -0.08062584 0.13489985 -0.09967425 0.0732013 0.024815159 -0.23888583 -0.27340364
0.11008045 0.19844323 -0.011010365 0.1636571 0.01607146 -0.23174429 0.036918122 0.07708104
0.15441681 0.092884704 -0.281712 0.16496009 0.061515108 0.056390222 -0.081687756 0.0034363403
-0.057805408 0.05706843 0.2315226 0.080990285 0.12980166 0.054011103 0.056294627 0.024803
0.038729053 -0.08216214 -0.13833745 -0.20662922 0.059322607 -0.12010543 -0.017945802 -0.06165993

common.4.bias f4 [128]
00000000: 95a8 033c dd21 a8bd c431 26bd f9c9 7f3d
00000010: 7cd9 78bd d81c 713c bd21 dcbd 0ca0 4ebc
00000020: 2ffa 08bc 94b3 8ebd 7358 a43d 17af 0cbd
00000030: 2e3c 553c e780 ecbd d919 15bd 4e2e 993d
00000040: dfd0 a23d 1be2 be3c 1b45 bbbb 8227 c9bc
00000050: 9006 66bc 8794 0d3e dce5 813c 08b7 533d
00000060: 6642 b23d ae5b dfbc 0799 62bc e442 48bd
00000070: 0cbc 333d 9095 22bd 3c73 4d3d 8cfa 04bc
00000080: 3821 3dbd d8d5 ef3c 2623 dcbc c17a 3abd
00000090: 52b4 103e e181 90bc 1714 863d 7545 5abd
000000a0: 6348 febc 05e4 16bd be63 89bd ce6c 3a3d
000000b0: 8fd9 533c 6077 c43d d04a aebd d12d 333d
000000c0: dd9e 51bd 3c38 9f3d eeec 96bb cd5d 363d
000000d0: dcc3 073d cc7e 56ba f68a fabc eb27 c03d
000000e0: 7007 e7bc da23 5c3c 56e6 13bd c385 5f3d
000000f0: 354a 03bd 1c59 07bd b5ab 52bd 8904 cbbc
00000100: ee23 15bd 886b 683d 4993 abbd 2036 bbbd
00000110: f65e e33d ddb7 88bd 39ba ad3d c72a a1bc
00000120: 61f0 4dbc 3da5 bf3b 5c1f 7dbd ffec 47bd
00000130: a4e4 283d 6b5e 84bc 775b 09bc d3b1 74bc
00000140: e25d 89bd a79d 463d 78f7 013e 5418 37bb
00000150: 503b 7bbc a6b6 07bd 0441 df3b f127 883d
00000160: 1ba0 753d f2cd e63c 2afc cf3b bee3 64bd
00000170: a7a8 80bd 9f3f bbbc 4baa 363d 43ba ecbc
00000180: f18e 20bd fb97 293e 3b2a 9cbc 30eb 283c
00000190: 0c3d 52bd 5924 1fbb d388 be3d b66d 97bb
000001a0: c34a a7bd ee33 d73b 90b1 90bd 6df7 793c
000001b0: 45b8 84bd f7e3 273d 5f3d b23b 938b 4cbd
000001c0: e8f2 b7bd 4b62 363d 805e 79bd ef4f d2bc
000001d0: c06e 5fbc f25c a3bd 3209 69bd 5db1 02bd
000001e0: c3cd 9a3d 9110 123e 59b0 adbd b432 e93c
000001f0: 38bc aabd b401 793b 2c46 863d c583 103c
0.008035799 -0.08209584 -0.040574804 0.062448476 -0.060754284 0.01471635 -0.107486226 -0.0126114
-0.00836043 -0.069678456 0.08024683 -0.034346666 0.013014836 -0.11548024 -0.036401603 0.07479535
0.07949995 0.023301175 -0.005715025 -0.024554972 -0.014039651 0.1382619 0.015856676 0.051688224
0.08704071 -0.027265396 -0.01383043 -0.048891917 0.043880507 -0.039693415 0.050158724 -0.008116376
-0.046174258 0.029276773 -0.026872229 -0.045527223 0.14131287 -0.017640056 0.065468006 -0.053288896
-0.031040376 -0.03683855 -0.067084774 0.04551392 0.012930288 0.095930815 -0.08510363 0.043744866
-0.051176894 0.07774398 -0.004605881 0.04452305 0.03314577 -0.00081823464 -0.03058384 0.09382614
-0.028201789 0.013436282 -0.036108337 0.054570924 -0.03205319 -0.033043966 -0.051433284 -0.024782436
-0.03641122 0.056743175 -0.08377702 -0.09141183 0.11102097 -0.06675694 0.08482785 -0.019673718
-0.012569518 0.0058485554 -0.061797485 -0.04881 0.041233674 -0.016158303 -0.008383623 -0.014934975
-0.0670736 0.048490193 0.12692058 -0.0027938085 -0.015333965 -0.03313317 0.0068131704 0.06648243
0.05996714 0.028174374 0.006347199 -0.055881254 -0.06282168 -0.022857485 0.044595998 -0.02889741
-0.03919882 0.16561882 -0.019063106 0.010309979 -0.05132775 -0.002428314 0.09303441 -0.004621233
-0.081685565 0.00656747 -0.07065117 0.015256745 -0.06480459 0.04098889 0.005439445 -0.049937796
-0.089818776 0.044527333 -0.060881138 -0.025672881 -0.013637245 -0.07976712 -0.056893535 -0.031907428
0.07558777 0.14264132 -0.08480901 0.02846656 -0.08336681 0.00379954 0.06556353 0.008820479

common.6.weight f4 [128, 128]
00000000: 03e1 92be 421c 07be 98ef 4d3d 3538 893e
00000010: bb5e 87bb ff7e 80bc 864a 46bd b01c a4be
00000020: 4339 153e 95d4 6a3d 2264 ddbe 7c5b 993d
00000030: a383 adbd 1b0b 7e3e 38e8 f93c 0898 133d
00000040: 188f 733d dfab 3dbc c453 50be 79a7 9dbe
00000050: b62a 2b3e d3b7 023e 2959 a1bd caa3 cb3d
00000060: 42c6 d6bd da52 b0be 0682 7e3d 7548 763e
00000070: ba09 adbe f98b d5bd 9f31 eebd d995 92be
00000080: 3f98 83be 6124 df3d 79f5 7abc 88e7 4c3e
00000090: 0731 5cbc b4cd 55be ec33 fc3d 8a5a 34be
000000a0: 2167 9c3d fc09 0b3d 2768 a3be 9b19 29be
000000b0: 4401 39be 824d 783d 6c98 353c fd2e 8fbd
000000c0: 7fea 053e 9aec 64be 5491 6e3d ea02 b8be
000000d0: c78f e0be 565e 223e 0d91 7cbe 8f9f 9d3d
000000e0: 57fd 2abe fab8 9dbe 6e85 9b3b 97b1 afbe
000000f0: 2649 1e3d 9a4a babe 76e2 2fbe 90b1 123d
00000100: 23ba dfbd 18cb 15bc 59a5 cb3d 7f52 eb3d
00000110: e246 383d 4520 8d3e 5354 753d 70cc f23d
00000120: 1fcb 36be 0e8a b1bd d45e 31be 65e5 60be
00000130: 8ee7 36be 7070 2a3e 41e5 9cbd c23a eabd
00000140: 89df 8e3d cc0e b1be a081 0cbe 7a5f b33d
00000150: a171 88be 7abd 30be 54ab b8be ac57 dd3c
00000160: 2588 0abe 7d50 78bd 6139 a83e 6206 89be
00000170: 7315 8a3e f01a c53c 0807 243d a0c1 5e3d
00000180: d977 103e 34c2 a6bd b097 96bc ac59 b73e
00000190: 50e4 253d baa2 173e a057 89bd c520 00be
000001a0: b97b 49be 4ad7 05bc c3f9 ab3c cb07 8c3d
000001b0: 0fd7 883d a86f 7bbe fa54 94bd f9ba dd3c
000001c0: f425 29be 518d 1c3e 1277 693d 9554 7cbc
000001d0: f7fd ab3d d563 58be 4b0f 84bc 20b3 b53d
000001e0: ebae 70bd eb85 053e c0e1 85be 44d6 8ebc
000001f0: 6fa7 d9bc 658b 4e3d 5cff eb3a 4957 883d
00000200: 1c2f e23b dc64 e43d 3846 16bf 5c46 653c
00000210: d5a8 ee3d e1ce 27be 3d55 5ebe 1b67 2b3e
00000220: b7ba 0abd 64e6 b7bd c229 503e 9bf2 0a3d
00000230: 8e15 54bd 5364 9b3d b3ea 723d 9178 34be
00000240: 98ef 433d 4a10 85bd 50df 43be c3fd 7fbd
00000250: ddb8 1cbe b648 c1bb 5e6e 87be 90e4 7ebb
00000260: 7900 0d3d c250 613e 401c 283d 75a7 9bbd
00000270: 9738 323c 7643 55be 4194 823d 1987 c13d
00000280: fb43 433d 11b1 5cbe ffe4 aebd 2dc8 42be
00000290: 9b6c dc3d 2765 9f3e fdb6 5bbe 3da8 553d
000002a0: 389e 9abe a29e 7cbc 2351 b23d c63d 9c3d
000002b0: e517 023e c3a0 d6bd 5445 ddbe 8ea0 903e
000002c0: bbd9 343e 3e56 173e 8a15 9dbe 8d6d c23c
000002d0: 0a56 893e 2d75 3cbe 9f92 00be 65e8 d53d
000002e0: 7489 a4bc 2824 013d 7a70 3b3e d3ce df3e
000002f0: ddab 4cbe a6fd 0fbe ec55 3ebd bd48 21be
00000300: c1aa 0fbd 6ed3 b63d e333 123d e6d8 07bd
00000310: 9f78 2ebe 8320 cdbe 2328 b23c 9181 183e
00000320: e7ad 883d 7ddf 6dbd f652 953d 4c56 093d
00000330: 6e2d 0a3e 6807 d1be 8e25 213e 2409 2b3c
00000340: f76a 38be 27ac d03d b9ed b93d 9386 533d
00000350: 16bf eabd 50b2 9ebc 9334 5b3e 962f e9bd
00000360: 84e8 01bc bbe5 393e 8b9e 03bf 78ad 083e
00000370: 2582 1bbe bc98 adbe 3184 273b f933 36be
00000380: cc46 5fbe 0541 00bd b067 703d 9a76 a5be
00000390: e46b 2bbe 4aca dfbe 8d31 07bd c2cf b6bd
000003a0: 9aa9 b03d a21a 4fbe 4fa1 41be 98d5 4ebe
000003b0: d070 35be 632b 5ebd 83b0 82bd 195c 41be
000003c0: 5eab cc3d 24ad e8be 2877 3abb 22ac e9bc
000003d0: b8a2 1b3e 32ad a8bd 0f40 30be 8125 92be
000003e0: cd3f 09be 9499 babb d5bc d63d 160f 2cbe
000003f0: 3862 debe 9ded 2a3c db06 37bc d99f 80bd
-0.28687295 -0.13194373 0.050277323 0.26800695 -0.004131166 -0.015685556 -0.048410915 -0.32053137
0.14572625 0.05733164 -0.43240458 0.074881524 -0.08472373 0.24808924 0.030506238 0.03603366
0.059462637 -0.011576622 -0.20344454 -0.30791834 0.16715512 0.12765436 -0.07878334 0.0994335
-0.104870334 -0.3443821 0.06213572 0.24051078 -0.33796483 -0.10427088 -0.11630558 -0.2862995
-0.25702092 0.108956106 -0.015317314 0.20010197 -0.013439423 -0.20879251 0.12314591 -0.17612663
0.07636858 0.03394507 -0.319154 -0.16513674 -0.18066889 0.060620792 0.0110837035 -0.06991384
0.13077734 -0.22355881 0.058244064 -0.35939723 -0.43859693 0.15856299 -0.24664707 0.07696449
-0.16698204 -0.30805188 0.0047461307 -0.34315178 0.03864398 -0.3638504 -0.17176232 0.035813868
-0.10924175 -0.00914266 0.09943647 0.11490344 0.044989474 0.27563682 0.05989487 0.118553996
-0.17850922 -0.0866891 -0.1732133 -0.21962507 -0.17861769 0.16644454 -0.07660914 -0.114369884
0.0697623 -0.34581602 -0.13721323 0.08758445 -0.26649192 -0.1725978 -0.36068213 0.027019344
-0.13528498 -0.060623635 0.32856277 -0.26762682 0.2696949 0.024060696 0.040045768 0.054383874
0.14108218 -0.0814251 -0.018382877 0.35810602 0.04050094 0.14808169 -0.06706166 -0.125125
-0.19676103 -0.008169005 0.02099312 0.06837424 0.06681644 -0.24554312 -0.072427705 0.027066695
-0.16518384 0.15288283 0.05699832 -0.015401025 0.08398049 -0.21131833 -0.016120574 0.08872056
-0.058760565 0.13039367 -0.26148796 -0.017436154 -0.026569096 0.050425906 0.001800518 0.06657273
0.0069025885 0.1115205 -0.58700895 0.013993826 0.11653296 -0.16387512 -0.21712203 0.1673855
-0.03386947 -0.089794904 0.2032843 0.033922773 -0.05177837 0.07587495 0.059305858 -0.17624117
0.047835916 -0.064972475 -0.19128156 -0.062497865 -0.15304895 -0.0058985604 -0.2645139 -0.0038893558
0.03442428 0.22003463 0.041042566 -0.07600299 0.01087775 -0.20826516 0.063759334 0.09449596
0.047672253 -0.2155192 -0.08539771 -0.19021674 0.10762902 0.3113186 -0.21456523 0.052162398
-0.30198836 -0.01541868 0.08706882 0.0762897 0.12704428 -0.104798816 -0.43216956 0.28247494
0.17661183 0.14778993 -0.30680496 0.023733879 0.26823455 -0.18404074 -0.12555932 0.10444716
-0.020085074 0.031528622 0.18304625 0.43712482 -0.19987436 -0.14061603 -0.04646866 -0.15750404
-0.035074953 0.08927046 0.035694014 -0.033165835 -0.17038201 -0.40063867 0.021747654 0.14893176
0.06673794 -0.058074463 0.07291214 0.033529565 0.13493893 -0.40825963 0.15736982 0.010439191
-0.18009554 0.101890855 0.09078545 0.05164201 -0.11462228 -0.019372135 0.21406774 -0.113860294
-0.007928971 0.18154041 -0.5141379 0.13347423 -0.15186365 -0.3390559 0.002556097 -0.17793263
-0.2180435 -0.031312007 0.058692634 -0.32317048 -0.16740376 -0.43709022 -0.03300624 -0.089263454
0.08626099 -0.20225003 -0.1890919 -0.20198667 -0.17718816 -0.054240596 -0.06381323 -0.18882789
0.09993623 -0.45444596 -0.002845237 -0.028524462 0.15198791 -0.082361594 -0.17211936 -0.28544238
-0.13403244 -0.0056945775 0.104852356 -0.1680263 -0.4343431 0.010432628 -0.011171068 -0.062804885

common.6.bias f4 [128]
00000000: 2541 443d 14ce ed3d 36d5 643d 8b7e 46bd
00000010: ec1e f93d cce8 083d 8c3c f53d 92d2 88bd
00000020: a880 a13c 830a f6bc 8787 093d 7b2d ba3a
00000030: 2ebb 073e 720a d3bb 73a3 33bd 50ae 053d
00000040: c395 1abd 75fc ba3d f685 d6bd 78c5 8dbd
00000050: bd2f 383d ace4 ed3c 43ee 113e 005d 3abd
00000060: de7f 373d da21 e2bd 76fc 813a ac0f 8cbd
00000070: 3db3 1cbd 66ad 1a3e b23b 333e e291 65bd
00000080: 01ac 353d be0e 61bc 4ef1 083e f58a 873d
00000090: b4e7 713d 018e 513c 8c4d 653a b938 d9bc
000000a0: d020 8fbd f3b3 653c 38f1 a83d 3a23 c7bd
000000b0: f7ec 153d 2f47 c13d ed4f 543d 7500 3bbd
000000c0: a47b 273d 5a7e 953c 6b36 e13d 94b0 5abd
000000d0: b5b8 953c ba93 053e d6cc 883d 86d5 833d
000000e0: cf9d 54bd b41a 11bd c900 963d 1c8f 6d3b
000000f0: 1436 88bc 876d 9c3d 59f0 763d 7f3c b73d
00000100: e701 86bd 6ed2 2ebc 51fe e83b 5167 e63d
00000110: bd89 d43c 6cec fbbd 31a4 f3bd 1d47 14bd
00000120: b45b adbd e649 bc3c 4793 f8bd 21a4 c2bc
00000130: 6511 b2bc 7fbc ba3d e82b 9d3c 71ab 9dbd
00000140: bf51 14bd 592d e4bc f968 e9bc dbb2 f73d
00000150: 5864 d5b9 1027 133e 0fb8 c8bd befa 3ebd
00000160: 5c6f 0c3e 5346 1cbd beea 243d 6ef9 953d
00000170: 78ad bd3c 6299 58bd 768e d1bd 0130 5d3d
00000180: 30f1 3cbd 2594 c6bd fd73 803d 71cb 643d
00000190: 83d2 0fbe 07e2 5fbd 86a6 bf3c f4fa 44bc
000001a0: e38e e8bc 336f c13c 6289 b7bd 4d6c 6e3d
000001b0: 3f00 373d 4fc3 b13d 7216 8c3d e972 bdbd
000001c0: 654b 9fbd 87dc a53d 652e e2bc ae4b db3d
000001d0: d909 a63d f53f 6fbd 264f 98bc 42be 9f3d
000001e0: 0eb2 b0bd 5286 973c 3af5 813d ca3a 41bd
000001f0: adaa bf3d e870 eb3c 6dcc 9b3d 12fe d1bd
0.04791369 0.11611572 0.055867396 -0.048460525 0.12164101 0.033425137 0.11974439 -0.06680788
0.019714668 -0.03003431 0.033576515 0.0014204228 0.13254997 -0.006440454 -0.04385705 0.03263694
-0.03774048 0.091301836 -0.1047477 -0.0692243 0.0449674 0.029039703 0.14251046 -0.045498848
0.044799678 -0.11041613 0.0009917158 -0.06838927 -0.038256872 0.15105209 0.1750324 -0.056047328
0.04435349 -0.013736425 0.133733 0.06618301 0.05905886 0.012790204 0.0008747212 -0.026516305
-0.0698868 0.014019954 0.08249134 -0.09723516 0.03660294 0.09437405 0.051834036 -0.045654733
0.040889397 0.018248726 0.109967075 -0.053391054 0.018276552 0.13044634 0.06679694 0.06437211
-0.05190831 -0.035425857 0.073243685 0.003624863 -0.016627349 0.07638078 0.060287807 0.089470856
-0.065433316 -0.010670288 0.007110395 0.11250175 0.025944585 -0.12300953 -0.118965514 -0.03620063
-0.084647566 0.022984456 -0.12137466 -0.023759903 -0.02173681 0.09117984 0.019185975 -0.076987155
-0.03621077 -0.027853655 -0.028492438 0.12094661 -0.00040701288 0.1437037 -0.098007314 -0.046625845
0.13714355 -0.038153004 0.04026293 0.073229656 0.023154005 -0.052880652 -0.102322504 0.05400086
-0.04612845 -0.09696225 0.06272123 0.05585808 -0.14045148 -0.054658916 0.023394834 -0.0120227225
-0.028388446 0.023612594 -0.089617506 0.058208752 0.04467797 0.0867983 0.068402186 -0.09250433
-0.07778052 0.08098703 -0.027610013 0.10707794 0.08107347 -0.058410604 -0.018592428 0.07799961
-0.08627711 0.018496666 0.063456014 -0.047175206 0.09358726 0.028740361 0.076073505 -0.10253538

common.8.weight f4 [16, 128]
00000000: 5a2a c5be 5ef7 003f 2940 a0bd a327 213d
00000010: ff99 6e3d a052 b33c 9af0 25bc 658b adbe
00000020: 9dd0 bfbd cf9b d33d 8cb7 99bd 2c79 8b3d
00000030: db7f 723d 6b52 133f d39a 823e 67bc 24be
00000040: 598f 9ebe 780f 4b3e 2c47 3dbe 0830 0ebe
00000050: bf3c 9f3e c0eb 4d3c 9b8e 2e3d d2f7 713d
00000060: f70f e93e 2597 2c3e 37a4 d5be e255 96bd
00000070: 7ed6 9ebe 80ba 7f3d 3893 fe3d 38dc 21be
00000080: 2c7f 0e3e b556 443e c2aa d13d af89 19bf
00000090: 0ba1 8d3d 28cf b33d 4699 833d 03ed a03e
000000a0: 01c8 0f3f cb51 053e 6db5 e63e a16e 00bf
000000b0: 636e 3c3d d832 fd3d ad0d cbbc 5fa1 93be
000000c0: f26e d2bd 549a f33d 75cc 453e 6383 a8be
000000d0: 92c8 85be b78e 093d 0ab9 94bd 3f33 5e3e
000000e0: 5700 ce3e 3105 aa3d c012 6e3e 7d36 963e
000000f0: 48a2 a03d d501 fabc cf6d 94bd d088 123d
00000100: 2ec9 a93d c75f 393e 1851 e9bc 3f56 963d
00000110: c406 b03d 5135 e6bd a3e4 8e3e 2d78 893e
00000120: ae59 12bf 8d47 3e3d f0c2 1dbd 5293 8a3e
00000130: be59 1e3c 639d 9cbc 50ba 76bd 6a86 6ebe
00000140: 7c75 d3be 69e8 dbbd 32cd e23e 4b06 a53d
00000150: 321b 743c 616a 04be 438a c6bd 89ec 03bd
00000160: 5c14 393e 95bb 29be 04c5 4ebe ce9b 043e
00000170: d71a 4ebb e899 e33e 1be2 8abc 36c7 3bbd
00000180: 922c 1ebe 2d33 f03c a27a 33be 16f2 c03e
00000190: f45b 9cbb 2c09 bc3d 9c53 b2be 2cce 1a3d
000001a0: aff6 8abb 9786 6b3c 49c1 973b 8378 43be
000001b0: 58f1 f03d fe46 6e3e b86e 6b3e b953 f2be
000001c0: 5374 243f cdaa 4a3d 5891 7a3e 751f 943d
000001d0: 7644 bd3d 0279 b5bd d1f7 d13d 05eb b73e
000001e0: ea6a 15bf d190 9e3d b9c5 ed3e 0682 b33d
000001f0: b0b0 cd3d 73a0 1ebf 8926 d63c 7981 57be
00000200: ab64 843e 45ba 25bf c4e6 a43e 9565 afbc
00000210: ab3d 92bd 979b 2abd 8890 b63c 199a ea3e
00000220: 5edf cfbd 4278 12bd 9795 703e d7c1 313d
00000230: d86c 28bd 48f5 f6be 4a35 61be 9f4e 5abe
00000240: bd3c 933e 0fce 37be 2366 6e3e 3b40 503e
00000250: 5444 96be b02e 123e 1181 073e 1ad2 a73d
00000260: 367e 50be 1392 13be 92a8 8a3e 6068 083e
00000270: 72bc 663e d223 5f3d 7a0e 29be 652f 173e
00000280: 90f6 1e3e 7217 8b3d df4c a93d 93a8 fb3e
00000290: 2b42 ee3d 1a03 a63d 2120 04bd 388e c03d
000002a0: 6a54 b6be fa0d 5e3c 9ed8 babd 7ebd d13e
000002b0: afcb 6f3e 58a5 ef3c 6fc9 90bd 1065 8a3e
000002c0: d277 be3d 6b7d 993e 0ed7 b63d eabd 0c3f
000002d0: 5d8b 1e3f 44bf 45bd 7b43 cc3d 386e 0cbd
000002e0: 1c5e aabe 1e86 a23d 7aa8 46be b4c4 8ebe
000002f0: 55b2 d73e bf94 ccbd 317d 553e 3e96 cdbd
00000300: e873 a1bb 6e69 2ebe 7e7f 25be 2efb 38bc
00000310: 8c43 b33d aa92 7b3e 47dd b4be f1f4 eebd
00000320: 4c48 513e 5bb9 773d 087d 90bd 90c1 dcbe
00000330: a9b8 afbc bb96 733d b132 a83e 1fac be3e
00000340: 87c4 823d 830c 363e 6eb9 a9be 7b27 1bbd
00000350: 05f7 043d 28b1 38be c1a7 293e 5bca 643c
00000360: 1450 35be 1ed1 613e 74b2 953e 88b5 51bd
00000370: 0ed3 6f3e e59b d6be c64b 01be 8737 a03d
00000380: 0fa0 4b3c 33b2 a43c e406 ab3e 3e7e 39bf
00000390: aec0 083e 07b9 adbd 7a1e f4bc b911 af3c
000003a0: e67c 033e 558e 5f3d b39f 6e3b db0d cfbc
000003b0: a4a4 eb3d 483c e3bd 3dba 90bc a3f6 be3e
000003c0: 9b0f bbbe ba54 923d 672f 88be 3b36 923d
000003d0: b01a c33d 246c c03d 6888 313d 04cf 99be
000003e0: a5b9 003f 8c2c 8b3e 4afd b9be 6bdd 7f3d
000003f0: d12b 20bc 441f 0f3f 5c9b d73d 1abb 103e
-0.38508874 0.5037745 -0.078247376 0.03934444 0.05825233 0.021889985 -0.010128165 -0.33895412
-0.09365962 0.103324525 -0.07505712 0.06810221 0.059203964 0.57547635 0.25508747 -0.16087495
-0.3096874 0.1983012 -0.18484181 -0.1388551 0.31101033 0.012568414 0.042616468 0.05907423
0.45519993 0.16854532 -0.41726848 -0.073405996 -0.3102302 0.06243372 0.124304235 -0.15806663
0.139157 0.19173701 0.102376476 -0.59975713 0.06915482 0.08779746 0.06425719 0.31430826
0.56164557 0.13019483 0.45060292 -0.50168806 0.04600371 0.12363213 -0.024786795 -0.28834054
-0.102750674 0.1189467 0.19316275 -0.3291274 -0.26129586 0.03358337 -0.07261856 0.21699236
0.40234634 0.083017714 0.2324934 0.29338446 0.07843453 -0.030518452 -0.07247507 0.035775006
0.08290325 0.18102942 -0.028481051 0.07340669 0.085950404 -0.11240638 0.2790881 0.268495
-0.5716809 0.046454955 -0.038515985 0.2706552 0.009664951 -0.019118017 -0.060236275 -0.23293462
-0.4130057 -0.10737688 0.44297177 0.08057841 0.014899062 -0.12931205 -0.0969434 -0.032208
0.18074173 -0.16575463 -0.20192343 0.1295006 -0.0031449103 0.4445336 -0.016953519 -0.04584428
-0.1544669 0.029321278 -0.1752725 0.37684697 -0.004771704 0.09181437 -0.34829414 0.037794277
-0.0042408328 0.01437535 0.0046311957 -0.1908894 0.11764783 0.23269269 0.22991455 -0.473295
0.64239997 0.049479295 0.24469507 0.072325625 0.092415735 -0.08860971 0.10252345 0.35921493
-0.5836626 0.07742465 0.46439913 0.087650344 0.10043466 -0.61963576 0.026141422 -0.21045484
0.25858054 -0.6473735 0.3220731 -0.021410743 -0.071406685 -0.04165229 0.022285715 0.45820692
-0.10150026 -0.035759218 0.23494564 0.04339775 -0.041119426 -0.4823401 -0.21992984 -0.21319054
0.28757277 -0.17949699 0.2328115 0.20337002 -0.29349005 0.14275622 0.13232829 0.081943706
-0.20360646 -0.14411192 0.27081734 0.13321066 0.22532824 0.05447752 -0.16509429 0.14764173
0.15523744 0.06791581 0.08266615 0.4915205 0.11633714 0.0810606 -0.032257203 0.09402126
-0.35611278 0.013553137 -0.09123348 0.40964884 0.23417543 0.029253647 -0.070696704 0.2703023
0.09300198 0.299785 0.08927737 0.54977286 0.619314 -0.04827811 0.099738084 -0.0342848
-0.33274925 0.07935737 -0.19400206 -0.27884448 0.42128244 -0.099893086 0.20848538 -0.10038422
-0.004927147 -0.17032406 -0.16161916 -0.011290355 0.08753118 0.24567667 -0.3532507 -0.116678126
0.20437735 0.060479503 -0.07055098 -0.43116426 -0.021450358 0.05946992 0.32851174 0.37240693
0.06385141 0.1777821 -0.33149284 -0.03787945 0.03246214 -0.1803633 0.165679 0.013964261
-0.17706329 0.22052428 0.2923771 -0.051198512 0.23420355 -0.41915813 -0.12626562 0.07823091
0.012428298 0.020104503 0.33403695 -0.72458255 0.13354751 -0.08482557 -0.029799689 0.021370756
0.12840614 0.054579098 0.0036411106 -0.025275161 0.11506012 -0.11095482 -0.01766693 0.37297544
-0.36535344 0.071450666 -0.26598665 0.0713925 0.095265746 0.09395626 0.043342978 -0.30040753
0.5028327 0.27182424 -0.36326057 0.06246702 -0.009776072 0.5590708 0.10527679 0.14133874

common.8.bias f4 [16]
00000000: 43ec f3bc 66cc b8bd 1b18 a43c bcc2 eb3d
00000010: 743c d2bd 97a3 d43d c6e7 b3bc edee 353e
00000020: 251d 9abc 1a72 cf3d 36a7 80bb 1eb0 a13d
00000030: 52cb bb3d 5e92 e2bb 4fee f93d ee77 013c
-0.029775744 -0.09023361 0.020031026 0.11511752 -0.10265437 0.10382765 -0.021961104 0.17766924
-0.018812725 0.10129185 -0.003926183 0.0789492 0.0916964 -0.006914421 0.12203657 0.007902129
